node {
  name: "global_step/initial_value"
  op: "Const"
  attr {
    key: "_output_shapes"
    value {
      list {
        shape {
        }
      }
    }
  }
  attr {
    key: "dtype"
    value {
      type: DT_INT32
    }
  }
  attr {
    key: "value"
    value {
      tensor {
        dtype: DT_INT32
        tensor_shape {
        }
        int_val: 0
      }
    }
  }
}
node {
  name: "global_step"
  op: "VariableV2"
  attr {
    key: "_output_shapes"
    value {
      list {
        shape {
        }
      }
    }
  }
  attr {
    key: "container"
    value {
      s: ""
    }
  }
  attr {
    key: "dtype"
    value {
      type: DT_INT32
    }
  }
  attr {
    key: "shape"
    value {
      shape {
      }
    }
  }
  attr {
    key: "shared_name"
    value {
      s: ""
    }
  }
}
node {
  name: "global_step/Assign"
  op: "Assign"
  input: "global_step"
  input: "global_step/initial_value"
  attr {
    key: "T"
    value {
      type: DT_INT32
    }
  }
  attr {
    key: "_class"
    value {
      list {
        s: "loc:@global_step"
      }
    }
  }
  attr {
    key: "_output_shapes"
    value {
      list {
        shape {
        }
      }
    }
  }
  attr {
    key: "use_locking"
    value {
      b: true
    }
  }
  attr {
    key: "validate_shape"
    value {
      b: true
    }
  }
}
node {
  name: "global_step/read"
  op: "Identity"
  input: "global_step"
  attr {
    key: "T"
    value {
      type: DT_INT32
    }
  }
  attr {
    key: "_class"
    value {
      list {
        s: "loc:@global_step"
      }
    }
  }
  attr {
    key: "_output_shapes"
    value {
      list {
        shape {
        }
      }
    }
  }
}
node {
  name: "mul/y"
  op: "Const"
  attr {
    key: "_output_shapes"
    value {
      list {
        shape {
        }
      }
    }
  }
  attr {
    key: "dtype"
    value {
      type: DT_INT32
    }
  }
  attr {
    key: "value"
    value {
      tensor {
        dtype: DT_INT32
        tensor_shape {
        }
        int_val: 2
      }
    }
  }
}
node {
  name: "mul"
  op: "Mul"
  input: "global_step/read"
  input: "mul/y"
  attr {
    key: "T"
    value {
      type: DT_INT32
    }
  }
  attr {
    key: "_output_shapes"
    value {
      list {
        shape {
        }
      }
    }
  }
}
node {
  name: "ExponentialDecay/learning_rate"
  op: "Const"
  attr {
    key: "_output_shapes"
    value {
      list {
        shape {
        }
      }
    }
  }
  attr {
    key: "dtype"
    value {
      type: DT_FLOAT
    }
  }
  attr {
    key: "value"
    value {
      tensor {
        dtype: DT_FLOAT
        tensor_shape {
        }
        float_val: 0.0010000000474974513
      }
    }
  }
}
node {
  name: "ExponentialDecay/Cast"
  op: "Cast"
  input: "mul"
  attr {
    key: "DstT"
    value {
      type: DT_FLOAT
    }
  }
  attr {
    key: "SrcT"
    value {
      type: DT_INT32
    }
  }
  attr {
    key: "_output_shapes"
    value {
      list {
        shape {
        }
      }
    }
  }
}
node {
  name: "ExponentialDecay/Cast_1/x"
  op: "Const"
  attr {
    key: "_output_shapes"
    value {
      list {
        shape {
        }
      }
    }
  }
  attr {
    key: "dtype"
    value {
      type: DT_FLOAT
    }
  }
  attr {
    key: "value"
    value {
      tensor {
        dtype: DT_FLOAT
        tensor_shape {
        }
        float_val: 4000000.0
      }
    }
  }
}
node {
  name: "ExponentialDecay/Cast_2/x"
  op: "Const"
  attr {
    key: "_output_shapes"
    value {
      list {
        shape {
        }
      }
    }
  }
  attr {
    key: "dtype"
    value {
      type: DT_FLOAT
    }
  }
  attr {
    key: "value"
    value {
      tensor {
        dtype: DT_FLOAT
        tensor_shape {
        }
        float_val: 0.949999988079071
      }
    }
  }
}
node {
  name: "ExponentialDecay/truediv"
  op: "RealDiv"
  input: "ExponentialDecay/Cast"
  input: "ExponentialDecay/Cast_1/x"
  attr {
    key: "T"
    value {
      type: DT_FLOAT
    }
  }
  attr {
    key: "_output_shapes"
    value {
      list {
        shape {
        }
      }
    }
  }
}
node {
  name: "ExponentialDecay/Floor"
  op: "Floor"
  input: "ExponentialDecay/truediv"
  attr {
    key: "T"
    value {
      type: DT_FLOAT
    }
  }
  attr {
    key: "_output_shapes"
    value {
      list {
        shape {
        }
      }
    }
  }
}
node {
  name: "ExponentialDecay/Pow"
  op: "Pow"
  input: "ExponentialDecay/Cast_2/x"
  input: "ExponentialDecay/Floor"
  attr {
    key: "T"
    value {
      type: DT_FLOAT
    }
  }
  attr {
    key: "_output_shapes"
    value {
      list {
        shape {
        }
      }
    }
  }
}
node {
  name: "ExponentialDecay"
  op: "Mul"
  input: "ExponentialDecay/learning_rate"
  input: "ExponentialDecay/Pow"
  attr {
    key: "T"
    value {
      type: DT_FLOAT
    }
  }
  attr {
    key: "_output_shapes"
    value {
      list {
        shape {
        }
      }
    }
  }
}
node {
  name: "learning_rate/tags"
  op: "Const"
  attr {
    key: "_output_shapes"
    value {
      list {
        shape {
        }
      }
    }
  }
  attr {
    key: "dtype"
    value {
      type: DT_STRING
    }
  }
  attr {
    key: "value"
    value {
      tensor {
        dtype: DT_STRING
        tensor_shape {
        }
        string_val: "learning_rate"
      }
    }
  }
}
node {
  name: "learning_rate"
  op: "ScalarSummary"
  input: "learning_rate/tags"
  input: "ExponentialDecay"
  attr {
    key: "T"
    value {
      type: DT_FLOAT
    }
  }
  attr {
    key: "_output_shapes"
    value {
      list {
        shape {
        }
      }
    }
  }
}
node {
  name: "train_input/input_producer/Const"
  op: "Const"
  attr {
    key: "_output_shapes"
    value {
      list {
        shape {
          dim {
            size: 3
          }
        }
      }
    }
  }
  attr {
    key: "dtype"
    value {
      type: DT_STRING
    }
  }
  attr {
    key: "value"
    value {
      tensor {
        dtype: DT_STRING
        tensor_shape {
          dim {
            size: 3
          }
        }
        string_val: ""
        string_val: ""
        string_val: ""
      }
    }
  }
}
node {
  name: "train_input/input_producer/Size"
  op: "Const"
  attr {
    key: "_output_shapes"
    value {
      list {
        shape {
        }
      }
    }
  }
  attr {
    key: "dtype"
    value {
      type: DT_INT32
    }
  }
  attr {
    key: "value"
    value {
      tensor {
        dtype: DT_INT32
        tensor_shape {
        }
        int_val: 3
      }
    }
  }
}
node {
  name: "train_input/input_producer/Greater/y"
  op: "Const"
  attr {
    key: "_output_shapes"
    value {
      list {
        shape {
        }
      }
    }
  }
  attr {
    key: "dtype"
    value {
      type: DT_INT32
    }
  }
  attr {
    key: "value"
    value {
      tensor {
        dtype: DT_INT32
        tensor_shape {
        }
        int_val: 0
      }
    }
  }
}
node {
  name: "train_input/input_producer/Greater"
  op: "Greater"
  input: "train_input/input_producer/Size"
  input: "train_input/input_producer/Greater/y"
  attr {
    key: "T"
    value {
      type: DT_INT32
    }
  }
  attr {
    key: "_output_shapes"
    value {
      list {
        shape {
        }
      }
    }
  }
}
node {
  name: "train_input/input_producer/Assert/Const"
  op: "Const"
  attr {
    key: "_output_shapes"
    value {
      list {
        shape {
        }
      }
    }
  }
  attr {
    key: "dtype"
    value {
      type: DT_STRING
    }
  }
  attr {
    key: "value"
    value {
      tensor {
        dtype: DT_STRING
        tensor_shape {
        }
        string_val: "string_input_producer requires a non-null input tensor"
      }
    }
  }
}
node {
  name: "train_input/input_producer/Assert/Assert/data_0"
  op: "Const"
  attr {
    key: "_output_shapes"
    value {
      list {
        shape {
        }
      }
    }
  }
  attr {
    key: "dtype"
    value {
      type: DT_STRING
    }
  }
  attr {
    key: "value"
    value {
      tensor {
        dtype: DT_STRING
        tensor_shape {
        }
        string_val: "string_input_producer requires a non-null input tensor"
      }
    }
  }
}
node {
  name: "train_input/input_producer/Assert/Assert"
  op: "Assert"
  input: "train_input/input_producer/Greater"
  input: "train_input/input_producer/Assert/Assert/data_0"
  attr {
    key: "T"
    value {
      list {
        type: DT_STRING
      }
    }
  }
  attr {
    key: "summarize"
    value {
      i: 3
    }
  }
}
node {
  name: "train_input/input_producer/Identity"
  op: "Identity"
  input: "train_input/input_producer/Const"
  input: "^train_input/input_producer/Assert/Assert"
  attr {
    key: "T"
    value {
      type: DT_STRING
    }
  }
  attr {
    key: "_output_shapes"
    value {
      list {
        shape {
          dim {
            size: 3
          }
        }
      }
    }
  }
}
node {
  name: "train_input/input_producer/RandomShuffle"
  op: "RandomShuffle"
  input: "train_input/input_producer/Identity"
  attr {
    key: "T"
    value {
      type: DT_STRING
    }
  }
  attr {
    key: "_output_shapes"
    value {
      list {
        shape {
          dim {
            size: 3
          }
        }
      }
    }
  }
  attr {
    key: "seed"
    value {
      i: 0
    }
  }
  attr {
    key: "seed2"
    value {
      i: 0
    }
  }
}
node {
  name: "train_input/input_producer/limit_epochs/Const"
  op: "Const"
  attr {
    key: "_output_shapes"
    value {
      list {
        shape {
        }
      }
    }
  }
  attr {
    key: "dtype"
    value {
      type: DT_INT64
    }
  }
  attr {
    key: "value"
    value {
      tensor {
        dtype: DT_INT64
        tensor_shape {
        }
        int64_val: 0
      }
    }
  }
}
node {
  name: "train_input/input_producer/limit_epochs/epochs"
  op: "VariableV2"
  attr {
    key: "_output_shapes"
    value {
      list {
        shape {
        }
      }
    }
  }
  attr {
    key: "container"
    value {
      s: ""
    }
  }
  attr {
    key: "dtype"
    value {
      type: DT_INT64
    }
  }
  attr {
    key: "shape"
    value {
      shape {
      }
    }
  }
  attr {
    key: "shared_name"
    value {
      s: ""
    }
  }
}
node {
  name: "train_input/input_producer/limit_epochs/epochs/Assign"
  op: "Assign"
  input: "train_input/input_producer/limit_epochs/epochs"
  input: "train_input/input_producer/limit_epochs/Const"
  attr {
    key: "T"
    value {
      type: DT_INT64
    }
  }
  attr {
    key: "_class"
    value {
      list {
        s: "loc:@train_input/input_producer/limit_epochs/epochs"
      }
    }
  }
  attr {
    key: "_output_shapes"
    value {
      list {
        shape {
        }
      }
    }
  }
  attr {
    key: "use_locking"
    value {
      b: true
    }
  }
  attr {
    key: "validate_shape"
    value {
      b: true
    }
  }
}
node {
  name: "train_input/input_producer/limit_epochs/epochs/read"
  op: "Identity"
  input: "train_input/input_producer/limit_epochs/epochs"
  attr {
    key: "T"
    value {
      type: DT_INT64
    }
  }
  attr {
    key: "_class"
    value {
      list {
        s: "loc:@train_input/input_producer/limit_epochs/epochs"
      }
    }
  }
  attr {
    key: "_output_shapes"
    value {
      list {
        shape {
        }
      }
    }
  }
}
node {
  name: "train_input/input_producer/limit_epochs/CountUpTo"
  op: "CountUpTo"
  input: "train_input/input_producer/limit_epochs/epochs"
  attr {
    key: "T"
    value {
      type: DT_INT64
    }
  }
  attr {
    key: "_class"
    value {
      list {
        s: "loc:@train_input/input_producer/limit_epochs/epochs"
      }
    }
  }
  attr {
    key: "_output_shapes"
    value {
      list {
        shape {
        }
      }
    }
  }
  attr {
    key: "limit"
    value {
      i: 50
    }
  }
}
node {
  name: "train_input/input_producer/limit_epochs"
  op: "Identity"
  input: "train_input/input_producer/RandomShuffle"
  input: "^train_input/input_producer/limit_epochs/CountUpTo"
  attr {
    key: "T"
    value {
      type: DT_STRING
    }
  }
  attr {
    key: "_output_shapes"
    value {
      list {
        shape {
          dim {
            size: 3
          }
        }
      }
    }
  }
}
node {
  name: "train_input/input_producer"
  op: "FIFOQueueV2"
  attr {
    key: "_output_shapes"
    value {
      list {
        shape {
        }
      }
    }
  }
  attr {
    key: "capacity"
    value {
      i: 32
    }
  }
  attr {
    key: "component_types"
    value {
      list {
        type: DT_STRING
      }
    }
  }
  attr {
    key: "container"
    value {
      s: ""
    }
  }
  attr {
    key: "shapes"
    value {
      list {
        shape {
        }
      }
    }
  }
  attr {
    key: "shared_name"
    value {
      s: ""
    }
  }
}
node {
  name: "train_input/input_producer/input_producer_EnqueueMany"
  op: "QueueEnqueueManyV2"
  input: "train_input/input_producer"
  input: "train_input/input_producer/limit_epochs"
  attr {
    key: "Tcomponents"
    value {
      list {
        type: DT_STRING
      }
    }
  }
  attr {
    key: "timeout_ms"
    value {
      i: -1
    }
  }
}
node {
  name: "train_input/input_producer/input_producer_Close"
  op: "QueueCloseV2"
  input: "train_input/input_producer"
  attr {
    key: "cancel_pending_enqueues"
    value {
      b: false
    }
  }
}
node {
  name: "train_input/input_producer/input_producer_Close_1"
  op: "QueueCloseV2"
  input: "train_input/input_producer"
  attr {
    key: "cancel_pending_enqueues"
    value {
      b: true
    }
  }
}
node {
  name: "train_input/input_producer/input_producer_Size"
  op: "QueueSizeV2"
  input: "train_input/input_producer"
  attr {
    key: "_output_shapes"
    value {
      list {
        shape {
        }
      }
    }
  }
}
node {
  name: "train_input/input_producer/ToFloat"
  op: "Cast"
  input: "train_input/input_producer/input_producer_Size"
  attr {
    key: "DstT"
    value {
      type: DT_FLOAT
    }
  }
  attr {
    key: "SrcT"
    value {
      type: DT_INT32
    }
  }
  attr {
    key: "_output_shapes"
    value {
      list {
        shape {
        }
      }
    }
  }
}
node {
  name: "train_input/input_producer/mul/y"
  op: "Const"
  attr {
    key: "_output_shapes"
    value {
      list {
        shape {
        }
      }
    }
  }
  attr {
    key: "dtype"
    value {
      type: DT_FLOAT
    }
  }
  attr {
    key: "value"
    value {
      tensor {
        dtype: DT_FLOAT
        tensor_shape {
        }
        float_val: 0.03125
      }
    }
  }
}
node {
  name: "train_input/input_producer/mul"
  op: "Mul"
  input: "train_input/input_producer/ToFloat"
  input: "train_input/input_producer/mul/y"
  attr {
    key: "T"
    value {
      type: DT_FLOAT
    }
  }
  attr {
    key: "_output_shapes"
    value {
      list {
        shape {
        }
      }
    }
  }
}
node {
  name: "train_input/input_producer/fraction_of_32_full/tags"
  op: "Const"
  attr {
    key: "_output_shapes"
    value {
      list {
        shape {
        }
      }
    }
  }
  attr {
    key: "dtype"
    value {
      type: DT_STRING
    }
  }
  attr {
    key: "value"
    value {
      tensor {
        dtype: DT_STRING
        tensor_shape {
        }
        string_val: "train_input/input_producer/fraction_of_32_full"
      }
    }
  }
}
node {
  name: "train_input/input_producer/fraction_of_32_full"
  op: "ScalarSummary"
  input: "train_input/input_producer/fraction_of_32_full/tags"
  input: "train_input/input_producer/mul"
  attr {
    key: "T"
    value {
      type: DT_FLOAT
    }
  }
  attr {
    key: "_output_shapes"
    value {
      list {
        shape {
        }
      }
    }
  }
}
node {
  name: "train_input/TFRecordReaderV2"
  op: "TFRecordReaderV2"
  attr {
    key: "_output_shapes"
    value {
      list {
        shape {
        }
      }
    }
  }
  attr {
    key: "compression_type"
    value {
      s: ""
    }
  }
  attr {
    key: "container"
    value {
      s: ""
    }
  }
  attr {
    key: "shared_name"
    value {
      s: ""
    }
  }
}
node {
  name: "train_input/ReaderReadUpToV2/num_records"
  op: "Const"
  attr {
    key: "_output_shapes"
    value {
      list {
        shape {
        }
      }
    }
  }
  attr {
    key: "dtype"
    value {
      type: DT_INT64
    }
  }
  attr {
    key: "value"
    value {
      tensor {
        dtype: DT_INT64
        tensor_shape {
        }
        int64_val: 2
      }
    }
  }
}
node {
  name: "train_input/ReaderReadUpToV2"
  op: "ReaderReadUpToV2"
  input: "train_input/TFRecordReaderV2"
  input: "train_input/input_producer"
  input: "train_input/ReaderReadUpToV2/num_records"
  attr {
    key: "_output_shapes"
    value {
      list {
        shape {
          dim {
            size: -1
          }
        }
        shape {
          dim {
            size: -1
          }
        }
      }
    }
  }
}
node {
  name: "train_input/ParseExample/Const"
  op: "Const"
  attr {
    key: "_output_shapes"
    value {
      list {
        shape {
          dim {
          }
        }
      }
    }
  }
  attr {
    key: "dtype"
    value {
      type: DT_FLOAT
    }
  }
  attr {
    key: "value"
    value {
      tensor {
        dtype: DT_FLOAT
        tensor_shape {
          dim {
          }
        }
      }
    }
  }
}
node {
  name: "train_input/ParseExample/Const_1"
  op: "Const"
  attr {
    key: "_output_shapes"
    value {
      list {
        shape {
          dim {
          }
        }
      }
    }
  }
  attr {
    key: "dtype"
    value {
      type: DT_INT64
    }
  }
  attr {
    key: "value"
    value {
      tensor {
        dtype: DT_INT64
        tensor_shape {
          dim {
          }
        }
      }
    }
  }
}
node {
  name: "train_input/ParseExample/ParseExample/names"
  op: "Const"
  attr {
    key: "_output_shapes"
    value {
      list {
        shape {
          dim {
          }
        }
      }
    }
  }
  attr {
    key: "dtype"
    value {
      type: DT_STRING
    }
  }
  attr {
    key: "value"
    value {
      tensor {
        dtype: DT_STRING
        tensor_shape {
          dim {
          }
        }
      }
    }
  }
}
node {
  name: "train_input/ParseExample/ParseExample/sparse_keys_0"
  op: "Const"
  attr {
    key: "_output_shapes"
    value {
      list {
        shape {
        }
      }
    }
  }
  attr {
    key: "dtype"
    value {
      type: DT_STRING
    }
  }
  attr {
    key: "value"
    value {
      tensor {
        dtype: DT_STRING
        tensor_shape {
        }
        string_val: "target"
      }
    }
  }
}
node {
  name: "train_input/ParseExample/ParseExample/dense_keys_0"
  op: "Const"
  attr {
    key: "_output_shapes"
    value {
      list {
        shape {
        }
      }
    }
  }
  attr {
    key: "dtype"
    value {
      type: DT_STRING
    }
  }
  attr {
    key: "value"
    value {
      tensor {
        dtype: DT_STRING
        tensor_shape {
        }
        string_val: "imageInput"
      }
    }
  }
}
node {
  name: "train_input/ParseExample/ParseExample/dense_keys_1"
  op: "Const"
  attr {
    key: "_output_shapes"
    value {
      list {
        shape {
        }
      }
    }
  }
  attr {
    key: "dtype"
    value {
      type: DT_STRING
    }
  }
  attr {
    key: "value"
    value {
      tensor {
        dtype: DT_STRING
        tensor_shape {
        }
        string_val: "seq_len"
      }
    }
  }
}
node {
  name: "train_input/ParseExample/ParseExample"
  op: "ParseExample"
  input: "train_input/ReaderReadUpToV2:1"
  input: "train_input/ParseExample/ParseExample/names"
  input: "train_input/ParseExample/ParseExample/sparse_keys_0"
  input: "train_input/ParseExample/ParseExample/dense_keys_0"
  input: "train_input/ParseExample/ParseExample/dense_keys_1"
  input: "train_input/ParseExample/Const"
  input: "train_input/ParseExample/Const_1"
  attr {
    key: "Ndense"
    value {
      i: 2
    }
  }
  attr {
    key: "Nsparse"
    value {
      i: 1
    }
  }
  attr {
    key: "Tdense"
    value {
      list {
        type: DT_FLOAT
        type: DT_INT64
      }
    }
  }
  attr {
    key: "_output_shapes"
    value {
      list {
        shape {
          dim {
            size: -1
          }
          dim {
            size: 2
          }
        }
        shape {
          dim {
            size: -1
          }
        }
        shape {
          dim {
            size: 2
          }
        }
        shape {
          dim {
            size: -1
          }
          dim {
            size: 8750
          }
        }
        shape {
          dim {
            size: -1
          }
          dim {
            size: 1
          }
        }
      }
    }
  }
  attr {
    key: "dense_shapes"
    value {
      list {
        shape {
          dim {
            size: 8750
          }
        }
        shape {
          dim {
            size: 1
          }
        }
      }
    }
  }
  attr {
    key: "sparse_types"
    value {
      list {
        type: DT_INT64
      }
    }
  }
}
node {
  name: "train_input/TFRecordReaderV2_1"
  op: "TFRecordReaderV2"
  attr {
    key: "_output_shapes"
    value {
      list {
        shape {
        }
      }
    }
  }
  attr {
    key: "compression_type"
    value {
      s: ""
    }
  }
  attr {
    key: "container"
    value {
      s: ""
    }
  }
  attr {
    key: "shared_name"
    value {
      s: ""
    }
  }
}
node {
  name: "train_input/ReaderReadUpToV2_1/num_records"
  op: "Const"
  attr {
    key: "_output_shapes"
    value {
      list {
        shape {
        }
      }
    }
  }
  attr {
    key: "dtype"
    value {
      type: DT_INT64
    }
  }
  attr {
    key: "value"
    value {
      tensor {
        dtype: DT_INT64
        tensor_shape {
        }
        int64_val: 2
      }
    }
  }
}
node {
  name: "train_input/ReaderReadUpToV2_1"
  op: "ReaderReadUpToV2"
  input: "train_input/TFRecordReaderV2_1"
  input: "train_input/input_producer"
  input: "train_input/ReaderReadUpToV2_1/num_records"
  attr {
    key: "_output_shapes"
    value {
      list {
        shape {
          dim {
            size: -1
          }
        }
        shape {
          dim {
            size: -1
          }
        }
      }
    }
  }
}
node {
  name: "train_input/ParseExample_1/Const"
  op: "Const"
  attr {
    key: "_output_shapes"
    value {
      list {
        shape {
          dim {
          }
        }
      }
    }
  }
  attr {
    key: "dtype"
    value {
      type: DT_FLOAT
    }
  }
  attr {
    key: "value"
    value {
      tensor {
        dtype: DT_FLOAT
        tensor_shape {
          dim {
          }
        }
      }
    }
  }
}
node {
  name: "train_input/ParseExample_1/Const_1"
  op: "Const"
  attr {
    key: "_output_shapes"
    value {
      list {
        shape {
          dim {
          }
        }
      }
    }
  }
  attr {
    key: "dtype"
    value {
      type: DT_INT64
    }
  }
  attr {
    key: "value"
    value {
      tensor {
        dtype: DT_INT64
        tensor_shape {
          dim {
          }
        }
      }
    }
  }
}
node {
  name: "train_input/ParseExample_1/ParseExample/names"
  op: "Const"
  attr {
    key: "_output_shapes"
    value {
      list {
        shape {
          dim {
          }
        }
      }
    }
  }
  attr {
    key: "dtype"
    value {
      type: DT_STRING
    }
  }
  attr {
    key: "value"
    value {
      tensor {
        dtype: DT_STRING
        tensor_shape {
          dim {
          }
        }
      }
    }
  }
}
node {
  name: "train_input/ParseExample_1/ParseExample/sparse_keys_0"
  op: "Const"
  attr {
    key: "_output_shapes"
    value {
      list {
        shape {
        }
      }
    }
  }
  attr {
    key: "dtype"
    value {
      type: DT_STRING
    }
  }
  attr {
    key: "value"
    value {
      tensor {
        dtype: DT_STRING
        tensor_shape {
        }
        string_val: "target"
      }
    }
  }
}
node {
  name: "train_input/ParseExample_1/ParseExample/dense_keys_0"
  op: "Const"
  attr {
    key: "_output_shapes"
    value {
      list {
        shape {
        }
      }
    }
  }
  attr {
    key: "dtype"
    value {
      type: DT_STRING
    }
  }
  attr {
    key: "value"
    value {
      tensor {
        dtype: DT_STRING
        tensor_shape {
        }
        string_val: "imageInput"
      }
    }
  }
}
node {
  name: "train_input/ParseExample_1/ParseExample/dense_keys_1"
  op: "Const"
  attr {
    key: "_output_shapes"
    value {
      list {
        shape {
        }
      }
    }
  }
  attr {
    key: "dtype"
    value {
      type: DT_STRING
    }
  }
  attr {
    key: "value"
    value {
      tensor {
        dtype: DT_STRING
        tensor_shape {
        }
        string_val: "seq_len"
      }
    }
  }
}
node {
  name: "train_input/ParseExample_1/ParseExample"
  op: "ParseExample"
  input: "train_input/ReaderReadUpToV2_1:1"
  input: "train_input/ParseExample_1/ParseExample/names"
  input: "train_input/ParseExample_1/ParseExample/sparse_keys_0"
  input: "train_input/ParseExample_1/ParseExample/dense_keys_0"
  input: "train_input/ParseExample_1/ParseExample/dense_keys_1"
  input: "train_input/ParseExample_1/Const"
  input: "train_input/ParseExample_1/Const_1"
  attr {
    key: "Ndense"
    value {
      i: 2
    }
  }
  attr {
    key: "Nsparse"
    value {
      i: 1
    }
  }
  attr {
    key: "Tdense"
    value {
      list {
        type: DT_FLOAT
        type: DT_INT64
      }
    }
  }
  attr {
    key: "_output_shapes"
    value {
      list {
        shape {
          dim {
            size: -1
          }
          dim {
            size: 2
          }
        }
        shape {
          dim {
            size: -1
          }
        }
        shape {
          dim {
            size: 2
          }
        }
        shape {
          dim {
            size: -1
          }
          dim {
            size: 8750
          }
        }
        shape {
          dim {
            size: -1
          }
          dim {
            size: 1
          }
        }
      }
    }
  }
  attr {
    key: "dense_shapes"
    value {
      list {
        shape {
          dim {
            size: 8750
          }
        }
        shape {
          dim {
            size: 1
          }
        }
      }
    }
  }
  attr {
    key: "sparse_types"
    value {
      list {
        type: DT_INT64
      }
    }
  }
}
node {
  name: "train_input/shuffle_batch_join/Const"
  op: "Const"
  attr {
    key: "_output_shapes"
    value {
      list {
        shape {
        }
      }
    }
  }
  attr {
    key: "dtype"
    value {
      type: DT_BOOL
    }
  }
  attr {
    key: "value"
    value {
      tensor {
        dtype: DT_BOOL
        tensor_shape {
        }
        bool_val: true
      }
    }
  }
}
node {
  name: "train_input/shuffle_batch_join/AddManySparseToTensorsMap"
  op: "AddManySparseToTensorsMap"
  input: "train_input/ParseExample/ParseExample"
  input: "train_input/ParseExample/ParseExample:1"
  input: "train_input/ParseExample/ParseExample:2"
  attr {
    key: "T"
    value {
      type: DT_INT64
    }
  }
  attr {
    key: "_output_shapes"
    value {
      list {
        shape {
          dim {
            size: -1
          }
        }
      }
    }
  }
  attr {
    key: "container"
    value {
      s: ""
    }
  }
  attr {
    key: "shared_name"
    value {
      s: ""
    }
  }
}
node {
  name: "train_input/shuffle_batch_join/ExpandDims/dim"
  op: "Const"
  attr {
    key: "_output_shapes"
    value {
      list {
        shape {
          dim {
            size: 1
          }
        }
      }
    }
  }
  attr {
    key: "dtype"
    value {
      type: DT_INT32
    }
  }
  attr {
    key: "value"
    value {
      tensor {
        dtype: DT_INT32
        tensor_shape {
          dim {
            size: 1
          }
        }
        int_val: -1
      }
    }
  }
}
node {
  name: "train_input/shuffle_batch_join/ExpandDims"
  op: "ExpandDims"
  input: "train_input/shuffle_batch_join/AddManySparseToTensorsMap"
  input: "train_input/shuffle_batch_join/ExpandDims/dim"
  attr {
    key: "T"
    value {
      type: DT_INT64
    }
  }
  attr {
    key: "Tdim"
    value {
      type: DT_INT32
    }
  }
  attr {
    key: "_output_shapes"
    value {
      list {
        shape {
          dim {
            size: -1
          }
          dim {
            size: 1
          }
        }
      }
    }
  }
}
node {
  name: "train_input/shuffle_batch_join/AddManySparseToTensorsMap_1"
  op: "AddManySparseToTensorsMap"
  input: "train_input/ParseExample_1/ParseExample"
  input: "train_input/ParseExample_1/ParseExample:1"
  input: "train_input/ParseExample_1/ParseExample:2"
  attr {
    key: "T"
    value {
      type: DT_INT64
    }
  }
  attr {
    key: "_output_shapes"
    value {
      list {
        shape {
          dim {
            size: -1
          }
        }
      }
    }
  }
  attr {
    key: "container"
    value {
      s: ""
    }
  }
  attr {
    key: "shared_name"
    value {
      s: "train_input/shuffle_batch_join/AddManySparseToTensorsMap"
    }
  }
}
node {
  name: "train_input/shuffle_batch_join/ExpandDims_1/dim"
  op: "Const"
  attr {
    key: "_output_shapes"
    value {
      list {
        shape {
          dim {
            size: 1
          }
        }
      }
    }
  }
  attr {
    key: "dtype"
    value {
      type: DT_INT32
    }
  }
  attr {
    key: "value"
    value {
      tensor {
        dtype: DT_INT32
        tensor_shape {
          dim {
            size: 1
          }
        }
        int_val: -1
      }
    }
  }
}
node {
  name: "train_input/shuffle_batch_join/ExpandDims_1"
  op: "ExpandDims"
  input: "train_input/shuffle_batch_join/AddManySparseToTensorsMap_1"
  input: "train_input/shuffle_batch_join/ExpandDims_1/dim"
  attr {
    key: "T"
    value {
      type: DT_INT64
    }
  }
  attr {
    key: "Tdim"
    value {
      type: DT_INT32
    }
  }
  attr {
    key: "_output_shapes"
    value {
      list {
        shape {
          dim {
            size: -1
          }
          dim {
            size: 1
          }
        }
      }
    }
  }
}
node {
  name: "train_input/shuffle_batch_join/random_shuffle_queue"
  op: "RandomShuffleQueueV2"
  attr {
    key: "_output_shapes"
    value {
      list {
        shape {
        }
      }
    }
  }
  attr {
    key: "capacity"
    value {
      i: 10
    }
  }
  attr {
    key: "component_types"
    value {
      list {
        type: DT_FLOAT
        type: DT_INT64
        type: DT_INT64
      }
    }
  }
  attr {
    key: "container"
    value {
      s: ""
    }
  }
  attr {
    key: "min_after_dequeue"
    value {
      i: 2
    }
  }
  attr {
    key: "seed"
    value {
      i: 0
    }
  }
  attr {
    key: "seed2"
    value {
      i: 0
    }
  }
  attr {
    key: "shapes"
    value {
      list {
        shape {
          dim {
            size: 8750
          }
        }
        shape {
          dim {
            size: 1
          }
        }
        shape {
          dim {
            size: 1
          }
        }
      }
    }
  }
  attr {
    key: "shared_name"
    value {
      s: ""
    }
  }
}
node {
  name: "train_input/shuffle_batch_join/random_shuffle_queue_EnqueueMany"
  op: "QueueEnqueueManyV2"
  input: "train_input/shuffle_batch_join/random_shuffle_queue"
  input: "train_input/ParseExample/ParseExample:3"
  input: "train_input/ParseExample/ParseExample:4"
  input: "train_input/shuffle_batch_join/ExpandDims"
  attr {
    key: "Tcomponents"
    value {
      list {
        type: DT_FLOAT
        type: DT_INT64
        type: DT_INT64
      }
    }
  }
  attr {
    key: "timeout_ms"
    value {
      i: -1
    }
  }
}
node {
  name: "train_input/shuffle_batch_join/random_shuffle_queue_EnqueueMany_1"
  op: "QueueEnqueueManyV2"
  input: "train_input/shuffle_batch_join/random_shuffle_queue"
  input: "train_input/ParseExample_1/ParseExample:3"
  input: "train_input/ParseExample_1/ParseExample:4"
  input: "train_input/shuffle_batch_join/ExpandDims_1"
  attr {
    key: "Tcomponents"
    value {
      list {
        type: DT_FLOAT
        type: DT_INT64
        type: DT_INT64
      }
    }
  }
  attr {
    key: "timeout_ms"
    value {
      i: -1
    }
  }
}
node {
  name: "train_input/shuffle_batch_join/random_shuffle_queue_Close"
  op: "QueueCloseV2"
  input: "train_input/shuffle_batch_join/random_shuffle_queue"
  attr {
    key: "cancel_pending_enqueues"
    value {
      b: false
    }
  }
}
node {
  name: "train_input/shuffle_batch_join/random_shuffle_queue_Close_1"
  op: "QueueCloseV2"
  input: "train_input/shuffle_batch_join/random_shuffle_queue"
  attr {
    key: "cancel_pending_enqueues"
    value {
      b: true
    }
  }
}
node {
  name: "train_input/shuffle_batch_join/random_shuffle_queue_Size"
  op: "QueueSizeV2"
  input: "train_input/shuffle_batch_join/random_shuffle_queue"
  attr {
    key: "_output_shapes"
    value {
      list {
        shape {
        }
      }
    }
  }
}
node {
  name: "train_input/shuffle_batch_join/sub/y"
  op: "Const"
  attr {
    key: "_output_shapes"
    value {
      list {
        shape {
        }
      }
    }
  }
  attr {
    key: "dtype"
    value {
      type: DT_INT32
    }
  }
  attr {
    key: "value"
    value {
      tensor {
        dtype: DT_INT32
        tensor_shape {
        }
        int_val: 2
      }
    }
  }
}
node {
  name: "train_input/shuffle_batch_join/sub"
  op: "Sub"
  input: "train_input/shuffle_batch_join/random_shuffle_queue_Size"
  input: "train_input/shuffle_batch_join/sub/y"
  attr {
    key: "T"
    value {
      type: DT_INT32
    }
  }
  attr {
    key: "_output_shapes"
    value {
      list {
        shape {
        }
      }
    }
  }
}
node {
  name: "train_input/shuffle_batch_join/Maximum/x"
  op: "Const"
  attr {
    key: "_output_shapes"
    value {
      list {
        shape {
        }
      }
    }
  }
  attr {
    key: "dtype"
    value {
      type: DT_INT32
    }
  }
  attr {
    key: "value"
    value {
      tensor {
        dtype: DT_INT32
        tensor_shape {
        }
        int_val: 0
      }
    }
  }
}
node {
  name: "train_input/shuffle_batch_join/Maximum"
  op: "Maximum"
  input: "train_input/shuffle_batch_join/Maximum/x"
  input: "train_input/shuffle_batch_join/sub"
  attr {
    key: "T"
    value {
      type: DT_INT32
    }
  }
  attr {
    key: "_output_shapes"
    value {
      list {
        shape {
        }
      }
    }
  }
}
node {
  name: "train_input/shuffle_batch_join/ToFloat"
  op: "Cast"
  input: "train_input/shuffle_batch_join/Maximum"
  attr {
    key: "DstT"
    value {
      type: DT_FLOAT
    }
  }
  attr {
    key: "SrcT"
    value {
      type: DT_INT32
    }
  }
  attr {
    key: "_output_shapes"
    value {
      list {
        shape {
        }
      }
    }
  }
}
node {
  name: "train_input/shuffle_batch_join/mul/y"
  op: "Const"
  attr {
    key: "_output_shapes"
    value {
      list {
        shape {
        }
      }
    }
  }
  attr {
    key: "dtype"
    value {
      type: DT_FLOAT
    }
  }
  attr {
    key: "value"
    value {
      tensor {
        dtype: DT_FLOAT
        tensor_shape {
        }
        float_val: 0.125
      }
    }
  }
}
node {
  name: "train_input/shuffle_batch_join/mul"
  op: "Mul"
  input: "train_input/shuffle_batch_join/ToFloat"
  input: "train_input/shuffle_batch_join/mul/y"
  attr {
    key: "T"
    value {
      type: DT_FLOAT
    }
  }
  attr {
    key: "_output_shapes"
    value {
      list {
        shape {
        }
      }
    }
  }
}
node {
  name: "train_input/shuffle_batch_join/fraction_over_2_of_8_full/tags"
  op: "Const"
  attr {
    key: "_output_shapes"
    value {
      list {
        shape {
        }
      }
    }
  }
  attr {
    key: "dtype"
    value {
      type: DT_STRING
    }
  }
  attr {
    key: "value"
    value {
      tensor {
        dtype: DT_STRING
        tensor_shape {
        }
        string_val: "train_input/shuffle_batch_join/fraction_over_2_of_8_full"
      }
    }
  }
}
node {
  name: "train_input/shuffle_batch_join/fraction_over_2_of_8_full"
  op: "ScalarSummary"
  input: "train_input/shuffle_batch_join/fraction_over_2_of_8_full/tags"
  input: "train_input/shuffle_batch_join/mul"
  attr {
    key: "T"
    value {
      type: DT_FLOAT
    }
  }
  attr {
    key: "_output_shapes"
    value {
      list {
        shape {
        }
      }
    }
  }
}
node {
  name: "train_input/shuffle_batch_join/n"
  op: "Const"
  attr {
    key: "_output_shapes"
    value {
      list {
        shape {
        }
      }
    }
  }
  attr {
    key: "dtype"
    value {
      type: DT_INT32
    }
  }
  attr {
    key: "value"
    value {
      tensor {
        dtype: DT_INT32
        tensor_shape {
        }
        int_val: 2
      }
    }
  }
}
node {
  name: "train_input/shuffle_batch_join"
  op: "QueueDequeueUpToV2"
  input: "train_input/shuffle_batch_join/random_shuffle_queue"
  input: "train_input/shuffle_batch_join/n"
  attr {
    key: "_output_shapes"
    value {
      list {
        shape {
          dim {
            size: -1
          }
          dim {
            size: 8750
          }
        }
        shape {
          dim {
            size: -1
          }
          dim {
            size: 1
          }
        }
        shape {
          dim {
            size: -1
          }
          dim {
            size: 1
          }
        }
      }
    }
  }
  attr {
    key: "component_types"
    value {
      list {
        type: DT_FLOAT
        type: DT_INT64
        type: DT_INT64
      }
    }
  }
  attr {
    key: "timeout_ms"
    value {
      i: -1
    }
  }
}
node {
  name: "train_input/shuffle_batch_join/Squeeze"
  op: "Squeeze"
  input: "train_input/shuffle_batch_join:2"
  attr {
    key: "T"
    value {
      type: DT_INT64
    }
  }
  attr {
    key: "_output_shapes"
    value {
      list {
        shape {
          dim {
            size: -1
          }
        }
      }
    }
  }
  attr {
    key: "squeeze_dims"
    value {
      list {
        i: 1
      }
    }
  }
}
node {
  name: "train_input/shuffle_batch_join/TakeManySparseFromTensorsMap"
  op: "TakeManySparseFromTensorsMap"
  input: "train_input/shuffle_batch_join/Squeeze"
  attr {
    key: "_class"
    value {
      list {
        s: "loc:@train_input/shuffle_batch_join/AddManySparseToTensorsMap"
      }
    }
  }
  attr {
    key: "_output_shapes"
    value {
      list {
        shape {
          dim {
            size: -1
          }
          dim {
            size: 2
          }
        }
        shape {
          dim {
            size: -1
          }
        }
        shape {
          dim {
            size: 2
          }
        }
      }
    }
  }
  attr {
    key: "container"
    value {
      s: ""
    }
  }
  attr {
    key: "dtype"
    value {
      type: DT_INT64
    }
  }
  attr {
    key: "shared_name"
    value {
      s: "train_input/shuffle_batch_join/AddManySparseToTensorsMap"
    }
  }
}
node {
  name: "train_input/shuffle_batch_join/control_dependency"
  op: "Identity"
  input: "train_input/shuffle_batch_join"
  input: "^train_input/shuffle_batch_join/TakeManySparseFromTensorsMap"
  attr {
    key: "T"
    value {
      type: DT_FLOAT
    }
  }
  attr {
    key: "_class"
    value {
      list {
        s: "loc:@train_input/shuffle_batch_join"
      }
    }
  }
  attr {
    key: "_output_shapes"
    value {
      list {
        shape {
          dim {
            size: -1
          }
          dim {
            size: 8750
          }
        }
      }
    }
  }
}
node {
  name: "train_input/shuffle_batch_join/control_dependency_1"
  op: "Identity"
  input: "train_input/shuffle_batch_join:1"
  input: "^train_input/shuffle_batch_join/TakeManySparseFromTensorsMap"
  attr {
    key: "T"
    value {
      type: DT_INT64
    }
  }
  attr {
    key: "_class"
    value {
      list {
        s: "loc:@train_input/shuffle_batch_join"
      }
    }
  }
  attr {
    key: "_output_shapes"
    value {
      list {
        shape {
          dim {
            size: -1
          }
          dim {
            size: 1
          }
        }
      }
    }
  }
}
node {
  name: "train_input/shuffle_batch_join/control_dependency_2"
  op: "Identity"
  input: "train_input/shuffle_batch_join/TakeManySparseFromTensorsMap"
  input: "^train_input/shuffle_batch_join"
  attr {
    key: "T"
    value {
      type: DT_INT64
    }
  }
  attr {
    key: "_class"
    value {
      list {
        s: "loc:@train_input/shuffle_batch_join/AddManySparseToTensorsMap"
      }
    }
  }
  attr {
    key: "_output_shapes"
    value {
      list {
        shape {
          dim {
            size: -1
          }
          dim {
            size: 2
          }
        }
      }
    }
  }
}
node {
  name: "train_input/shuffle_batch_join/control_dependency_3"
  op: "Identity"
  input: "train_input/shuffle_batch_join/TakeManySparseFromTensorsMap:1"
  input: "^train_input/shuffle_batch_join"
  attr {
    key: "T"
    value {
      type: DT_INT64
    }
  }
  attr {
    key: "_class"
    value {
      list {
        s: "loc:@train_input/shuffle_batch_join/AddManySparseToTensorsMap"
      }
    }
  }
  attr {
    key: "_output_shapes"
    value {
      list {
        shape {
          dim {
            size: -1
          }
        }
      }
    }
  }
}
node {
  name: "train_input/shuffle_batch_join/control_dependency_4"
  op: "Identity"
  input: "train_input/shuffle_batch_join/TakeManySparseFromTensorsMap:2"
  input: "^train_input/shuffle_batch_join"
  attr {
    key: "T"
    value {
      type: DT_INT64
    }
  }
  attr {
    key: "_class"
    value {
      list {
        s: "loc:@train_input/shuffle_batch_join/AddManySparseToTensorsMap"
      }
    }
  }
  attr {
    key: "_output_shapes"
    value {
      list {
        shape {
          dim {
            size: 2
          }
        }
      }
    }
  }
}
node {
  name: "test_input/input_producer/Const"
  op: "Const"
  attr {
    key: "_output_shapes"
    value {
      list {
        shape {
          dim {
            size: 3
          }
        }
      }
    }
  }
  attr {
    key: "dtype"
    value {
      type: DT_STRING
    }
  }
  attr {
    key: "value"
    value {
      tensor {
        dtype: DT_STRING
        tensor_shape {
          dim {
            size: 3
          }
        }
        string_val: ""
        string_val: ""
        string_val: ""
      }
    }
  }
}
node {
  name: "test_input/input_producer/Size"
  op: "Const"
  attr {
    key: "_output_shapes"
    value {
      list {
        shape {
        }
      }
    }
  }
  attr {
    key: "dtype"
    value {
      type: DT_INT32
    }
  }
  attr {
    key: "value"
    value {
      tensor {
        dtype: DT_INT32
        tensor_shape {
        }
        int_val: 3
      }
    }
  }
}
node {
  name: "test_input/input_producer/Greater/y"
  op: "Const"
  attr {
    key: "_output_shapes"
    value {
      list {
        shape {
        }
      }
    }
  }
  attr {
    key: "dtype"
    value {
      type: DT_INT32
    }
  }
  attr {
    key: "value"
    value {
      tensor {
        dtype: DT_INT32
        tensor_shape {
        }
        int_val: 0
      }
    }
  }
}
node {
  name: "test_input/input_producer/Greater"
  op: "Greater"
  input: "test_input/input_producer/Size"
  input: "test_input/input_producer/Greater/y"
  attr {
    key: "T"
    value {
      type: DT_INT32
    }
  }
  attr {
    key: "_output_shapes"
    value {
      list {
        shape {
        }
      }
    }
  }
}
node {
  name: "test_input/input_producer/Assert/Const"
  op: "Const"
  attr {
    key: "_output_shapes"
    value {
      list {
        shape {
        }
      }
    }
  }
  attr {
    key: "dtype"
    value {
      type: DT_STRING
    }
  }
  attr {
    key: "value"
    value {
      tensor {
        dtype: DT_STRING
        tensor_shape {
        }
        string_val: "string_input_producer requires a non-null input tensor"
      }
    }
  }
}
node {
  name: "test_input/input_producer/Assert/Assert/data_0"
  op: "Const"
  attr {
    key: "_output_shapes"
    value {
      list {
        shape {
        }
      }
    }
  }
  attr {
    key: "dtype"
    value {
      type: DT_STRING
    }
  }
  attr {
    key: "value"
    value {
      tensor {
        dtype: DT_STRING
        tensor_shape {
        }
        string_val: "string_input_producer requires a non-null input tensor"
      }
    }
  }
}
node {
  name: "test_input/input_producer/Assert/Assert"
  op: "Assert"
  input: "test_input/input_producer/Greater"
  input: "test_input/input_producer/Assert/Assert/data_0"
  attr {
    key: "T"
    value {
      list {
        type: DT_STRING
      }
    }
  }
  attr {
    key: "summarize"
    value {
      i: 3
    }
  }
}
node {
  name: "test_input/input_producer/Identity"
  op: "Identity"
  input: "test_input/input_producer/Const"
  input: "^test_input/input_producer/Assert/Assert"
  attr {
    key: "T"
    value {
      type: DT_STRING
    }
  }
  attr {
    key: "_output_shapes"
    value {
      list {
        shape {
          dim {
            size: 3
          }
        }
      }
    }
  }
}
node {
  name: "test_input/input_producer/RandomShuffle"
  op: "RandomShuffle"
  input: "test_input/input_producer/Identity"
  attr {
    key: "T"
    value {
      type: DT_STRING
    }
  }
  attr {
    key: "_output_shapes"
    value {
      list {
        shape {
          dim {
            size: 3
          }
        }
      }
    }
  }
  attr {
    key: "seed"
    value {
      i: 0
    }
  }
  attr {
    key: "seed2"
    value {
      i: 0
    }
  }
}
node {
  name: "test_input/input_producer"
  op: "FIFOQueueV2"
  attr {
    key: "_output_shapes"
    value {
      list {
        shape {
        }
      }
    }
  }
  attr {
    key: "capacity"
    value {
      i: 32
    }
  }
  attr {
    key: "component_types"
    value {
      list {
        type: DT_STRING
      }
    }
  }
  attr {
    key: "container"
    value {
      s: ""
    }
  }
  attr {
    key: "shapes"
    value {
      list {
        shape {
        }
      }
    }
  }
  attr {
    key: "shared_name"
    value {
      s: ""
    }
  }
}
node {
  name: "test_input/input_producer/input_producer_EnqueueMany"
  op: "QueueEnqueueManyV2"
  input: "test_input/input_producer"
  input: "test_input/input_producer/RandomShuffle"
  attr {
    key: "Tcomponents"
    value {
      list {
        type: DT_STRING
      }
    }
  }
  attr {
    key: "timeout_ms"
    value {
      i: -1
    }
  }
}
node {
  name: "test_input/input_producer/input_producer_Close"
  op: "QueueCloseV2"
  input: "test_input/input_producer"
  attr {
    key: "cancel_pending_enqueues"
    value {
      b: false
    }
  }
}
node {
  name: "test_input/input_producer/input_producer_Close_1"
  op: "QueueCloseV2"
  input: "test_input/input_producer"
  attr {
    key: "cancel_pending_enqueues"
    value {
      b: true
    }
  }
}
node {
  name: "test_input/input_producer/input_producer_Size"
  op: "QueueSizeV2"
  input: "test_input/input_producer"
  attr {
    key: "_output_shapes"
    value {
      list {
        shape {
        }
      }
    }
  }
}
node {
  name: "test_input/input_producer/ToFloat"
  op: "Cast"
  input: "test_input/input_producer/input_producer_Size"
  attr {
    key: "DstT"
    value {
      type: DT_FLOAT
    }
  }
  attr {
    key: "SrcT"
    value {
      type: DT_INT32
    }
  }
  attr {
    key: "_output_shapes"
    value {
      list {
        shape {
        }
      }
    }
  }
}
node {
  name: "test_input/input_producer/mul/y"
  op: "Const"
  attr {
    key: "_output_shapes"
    value {
      list {
        shape {
        }
      }
    }
  }
  attr {
    key: "dtype"
    value {
      type: DT_FLOAT
    }
  }
  attr {
    key: "value"
    value {
      tensor {
        dtype: DT_FLOAT
        tensor_shape {
        }
        float_val: 0.03125
      }
    }
  }
}
node {
  name: "test_input/input_producer/mul"
  op: "Mul"
  input: "test_input/input_producer/ToFloat"
  input: "test_input/input_producer/mul/y"
  attr {
    key: "T"
    value {
      type: DT_FLOAT
    }
  }
  attr {
    key: "_output_shapes"
    value {
      list {
        shape {
        }
      }
    }
  }
}
node {
  name: "test_input/input_producer/fraction_of_32_full/tags"
  op: "Const"
  attr {
    key: "_output_shapes"
    value {
      list {
        shape {
        }
      }
    }
  }
  attr {
    key: "dtype"
    value {
      type: DT_STRING
    }
  }
  attr {
    key: "value"
    value {
      tensor {
        dtype: DT_STRING
        tensor_shape {
        }
        string_val: "test_input/input_producer/fraction_of_32_full"
      }
    }
  }
}
node {
  name: "test_input/input_producer/fraction_of_32_full"
  op: "ScalarSummary"
  input: "test_input/input_producer/fraction_of_32_full/tags"
  input: "test_input/input_producer/mul"
  attr {
    key: "T"
    value {
      type: DT_FLOAT
    }
  }
  attr {
    key: "_output_shapes"
    value {
      list {
        shape {
        }
      }
    }
  }
}
node {
  name: "test_input/TFRecordReaderV2"
  op: "TFRecordReaderV2"
  attr {
    key: "_output_shapes"
    value {
      list {
        shape {
        }
      }
    }
  }
  attr {
    key: "compression_type"
    value {
      s: ""
    }
  }
  attr {
    key: "container"
    value {
      s: ""
    }
  }
  attr {
    key: "shared_name"
    value {
      s: ""
    }
  }
}
node {
  name: "test_input/ReaderReadUpToV2/num_records"
  op: "Const"
  attr {
    key: "_output_shapes"
    value {
      list {
        shape {
        }
      }
    }
  }
  attr {
    key: "dtype"
    value {
      type: DT_INT64
    }
  }
  attr {
    key: "value"
    value {
      tensor {
        dtype: DT_INT64
        tensor_shape {
        }
        int64_val: 2
      }
    }
  }
}
node {
  name: "test_input/ReaderReadUpToV2"
  op: "ReaderReadUpToV2"
  input: "test_input/TFRecordReaderV2"
  input: "test_input/input_producer"
  input: "test_input/ReaderReadUpToV2/num_records"
  attr {
    key: "_output_shapes"
    value {
      list {
        shape {
          dim {
            size: -1
          }
        }
        shape {
          dim {
            size: -1
          }
        }
      }
    }
  }
}
node {
  name: "test_input/ParseExample/Const"
  op: "Const"
  attr {
    key: "_output_shapes"
    value {
      list {
        shape {
          dim {
          }
        }
      }
    }
  }
  attr {
    key: "dtype"
    value {
      type: DT_FLOAT
    }
  }
  attr {
    key: "value"
    value {
      tensor {
        dtype: DT_FLOAT
        tensor_shape {
          dim {
          }
        }
      }
    }
  }
}
node {
  name: "test_input/ParseExample/Const_1"
  op: "Const"
  attr {
    key: "_output_shapes"
    value {
      list {
        shape {
          dim {
          }
        }
      }
    }
  }
  attr {
    key: "dtype"
    value {
      type: DT_INT64
    }
  }
  attr {
    key: "value"
    value {
      tensor {
        dtype: DT_INT64
        tensor_shape {
          dim {
          }
        }
      }
    }
  }
}
node {
  name: "test_input/ParseExample/ParseExample/names"
  op: "Const"
  attr {
    key: "_output_shapes"
    value {
      list {
        shape {
          dim {
          }
        }
      }
    }
  }
  attr {
    key: "dtype"
    value {
      type: DT_STRING
    }
  }
  attr {
    key: "value"
    value {
      tensor {
        dtype: DT_STRING
        tensor_shape {
          dim {
          }
        }
      }
    }
  }
}
node {
  name: "test_input/ParseExample/ParseExample/sparse_keys_0"
  op: "Const"
  attr {
    key: "_output_shapes"
    value {
      list {
        shape {
        }
      }
    }
  }
  attr {
    key: "dtype"
    value {
      type: DT_STRING
    }
  }
  attr {
    key: "value"
    value {
      tensor {
        dtype: DT_STRING
        tensor_shape {
        }
        string_val: "target"
      }
    }
  }
}
node {
  name: "test_input/ParseExample/ParseExample/dense_keys_0"
  op: "Const"
  attr {
    key: "_output_shapes"
    value {
      list {
        shape {
        }
      }
    }
  }
  attr {
    key: "dtype"
    value {
      type: DT_STRING
    }
  }
  attr {
    key: "value"
    value {
      tensor {
        dtype: DT_STRING
        tensor_shape {
        }
        string_val: "imageInput"
      }
    }
  }
}
node {
  name: "test_input/ParseExample/ParseExample/dense_keys_1"
  op: "Const"
  attr {
    key: "_output_shapes"
    value {
      list {
        shape {
        }
      }
    }
  }
  attr {
    key: "dtype"
    value {
      type: DT_STRING
    }
  }
  attr {
    key: "value"
    value {
      tensor {
        dtype: DT_STRING
        tensor_shape {
        }
        string_val: "seq_len"
      }
    }
  }
}
node {
  name: "test_input/ParseExample/ParseExample"
  op: "ParseExample"
  input: "test_input/ReaderReadUpToV2:1"
  input: "test_input/ParseExample/ParseExample/names"
  input: "test_input/ParseExample/ParseExample/sparse_keys_0"
  input: "test_input/ParseExample/ParseExample/dense_keys_0"
  input: "test_input/ParseExample/ParseExample/dense_keys_1"
  input: "test_input/ParseExample/Const"
  input: "test_input/ParseExample/Const_1"
  attr {
    key: "Ndense"
    value {
      i: 2
    }
  }
  attr {
    key: "Nsparse"
    value {
      i: 1
    }
  }
  attr {
    key: "Tdense"
    value {
      list {
        type: DT_FLOAT
        type: DT_INT64
      }
    }
  }
  attr {
    key: "_output_shapes"
    value {
      list {
        shape {
          dim {
            size: -1
          }
          dim {
            size: 2
          }
        }
        shape {
          dim {
            size: -1
          }
        }
        shape {
          dim {
            size: 2
          }
        }
        shape {
          dim {
            size: -1
          }
          dim {
            size: 8750
          }
        }
        shape {
          dim {
            size: -1
          }
          dim {
            size: 1
          }
        }
      }
    }
  }
  attr {
    key: "dense_shapes"
    value {
      list {
        shape {
          dim {
            size: 8750
          }
        }
        shape {
          dim {
            size: 1
          }
        }
      }
    }
  }
  attr {
    key: "sparse_types"
    value {
      list {
        type: DT_INT64
      }
    }
  }
}
node {
  name: "test_input/TFRecordReaderV2_1"
  op: "TFRecordReaderV2"
  attr {
    key: "_output_shapes"
    value {
      list {
        shape {
        }
      }
    }
  }
  attr {
    key: "compression_type"
    value {
      s: ""
    }
  }
  attr {
    key: "container"
    value {
      s: ""
    }
  }
  attr {
    key: "shared_name"
    value {
      s: ""
    }
  }
}
node {
  name: "test_input/ReaderReadUpToV2_1/num_records"
  op: "Const"
  attr {
    key: "_output_shapes"
    value {
      list {
        shape {
        }
      }
    }
  }
  attr {
    key: "dtype"
    value {
      type: DT_INT64
    }
  }
  attr {
    key: "value"
    value {
      tensor {
        dtype: DT_INT64
        tensor_shape {
        }
        int64_val: 2
      }
    }
  }
}
node {
  name: "test_input/ReaderReadUpToV2_1"
  op: "ReaderReadUpToV2"
  input: "test_input/TFRecordReaderV2_1"
  input: "test_input/input_producer"
  input: "test_input/ReaderReadUpToV2_1/num_records"
  attr {
    key: "_output_shapes"
    value {
      list {
        shape {
          dim {
            size: -1
          }
        }
        shape {
          dim {
            size: -1
          }
        }
      }
    }
  }
}
node {
  name: "test_input/ParseExample_1/Const"
  op: "Const"
  attr {
    key: "_output_shapes"
    value {
      list {
        shape {
          dim {
          }
        }
      }
    }
  }
  attr {
    key: "dtype"
    value {
      type: DT_FLOAT
    }
  }
  attr {
    key: "value"
    value {
      tensor {
        dtype: DT_FLOAT
        tensor_shape {
          dim {
          }
        }
      }
    }
  }
}
node {
  name: "test_input/ParseExample_1/Const_1"
  op: "Const"
  attr {
    key: "_output_shapes"
    value {
      list {
        shape {
          dim {
          }
        }
      }
    }
  }
  attr {
    key: "dtype"
    value {
      type: DT_INT64
    }
  }
  attr {
    key: "value"
    value {
      tensor {
        dtype: DT_INT64
        tensor_shape {
          dim {
          }
        }
      }
    }
  }
}
node {
  name: "test_input/ParseExample_1/ParseExample/names"
  op: "Const"
  attr {
    key: "_output_shapes"
    value {
      list {
        shape {
          dim {
          }
        }
      }
    }
  }
  attr {
    key: "dtype"
    value {
      type: DT_STRING
    }
  }
  attr {
    key: "value"
    value {
      tensor {
        dtype: DT_STRING
        tensor_shape {
          dim {
          }
        }
      }
    }
  }
}
node {
  name: "test_input/ParseExample_1/ParseExample/sparse_keys_0"
  op: "Const"
  attr {
    key: "_output_shapes"
    value {
      list {
        shape {
        }
      }
    }
  }
  attr {
    key: "dtype"
    value {
      type: DT_STRING
    }
  }
  attr {
    key: "value"
    value {
      tensor {
        dtype: DT_STRING
        tensor_shape {
        }
        string_val: "target"
      }
    }
  }
}
node {
  name: "test_input/ParseExample_1/ParseExample/dense_keys_0"
  op: "Const"
  attr {
    key: "_output_shapes"
    value {
      list {
        shape {
        }
      }
    }
  }
  attr {
    key: "dtype"
    value {
      type: DT_STRING
    }
  }
  attr {
    key: "value"
    value {
      tensor {
        dtype: DT_STRING
        tensor_shape {
        }
        string_val: "imageInput"
      }
    }
  }
}
node {
  name: "test_input/ParseExample_1/ParseExample/dense_keys_1"
  op: "Const"
  attr {
    key: "_output_shapes"
    value {
      list {
        shape {
        }
      }
    }
  }
  attr {
    key: "dtype"
    value {
      type: DT_STRING
    }
  }
  attr {
    key: "value"
    value {
      tensor {
        dtype: DT_STRING
        tensor_shape {
        }
        string_val: "seq_len"
      }
    }
  }
}
node {
  name: "test_input/ParseExample_1/ParseExample"
  op: "ParseExample"
  input: "test_input/ReaderReadUpToV2_1:1"
  input: "test_input/ParseExample_1/ParseExample/names"
  input: "test_input/ParseExample_1/ParseExample/sparse_keys_0"
  input: "test_input/ParseExample_1/ParseExample/dense_keys_0"
  input: "test_input/ParseExample_1/ParseExample/dense_keys_1"
  input: "test_input/ParseExample_1/Const"
  input: "test_input/ParseExample_1/Const_1"
  attr {
    key: "Ndense"
    value {
      i: 2
    }
  }
  attr {
    key: "Nsparse"
    value {
      i: 1
    }
  }
  attr {
    key: "Tdense"
    value {
      list {
        type: DT_FLOAT
        type: DT_INT64
      }
    }
  }
  attr {
    key: "_output_shapes"
    value {
      list {
        shape {
          dim {
            size: -1
          }
          dim {
            size: 2
          }
        }
        shape {
          dim {
            size: -1
          }
        }
        shape {
          dim {
            size: 2
          }
        }
        shape {
          dim {
            size: -1
          }
          dim {
            size: 8750
          }
        }
        shape {
          dim {
            size: -1
          }
          dim {
            size: 1
          }
        }
      }
    }
  }
  attr {
    key: "dense_shapes"
    value {
      list {
        shape {
          dim {
            size: 8750
          }
        }
        shape {
          dim {
            size: 1
          }
        }
      }
    }
  }
  attr {
    key: "sparse_types"
    value {
      list {
        type: DT_INT64
      }
    }
  }
}
node {
  name: "test_input/shuffle_batch_join/Const"
  op: "Const"
  attr {
    key: "_output_shapes"
    value {
      list {
        shape {
        }
      }
    }
  }
  attr {
    key: "dtype"
    value {
      type: DT_BOOL
    }
  }
  attr {
    key: "value"
    value {
      tensor {
        dtype: DT_BOOL
        tensor_shape {
        }
        bool_val: true
      }
    }
  }
}
node {
  name: "test_input/shuffle_batch_join/AddManySparseToTensorsMap"
  op: "AddManySparseToTensorsMap"
  input: "test_input/ParseExample/ParseExample"
  input: "test_input/ParseExample/ParseExample:1"
  input: "test_input/ParseExample/ParseExample:2"
  attr {
    key: "T"
    value {
      type: DT_INT64
    }
  }
  attr {
    key: "_output_shapes"
    value {
      list {
        shape {
          dim {
            size: -1
          }
        }
      }
    }
  }
  attr {
    key: "container"
    value {
      s: ""
    }
  }
  attr {
    key: "shared_name"
    value {
      s: ""
    }
  }
}
node {
  name: "test_input/shuffle_batch_join/ExpandDims/dim"
  op: "Const"
  attr {
    key: "_output_shapes"
    value {
      list {
        shape {
          dim {
            size: 1
          }
        }
      }
    }
  }
  attr {
    key: "dtype"
    value {
      type: DT_INT32
    }
  }
  attr {
    key: "value"
    value {
      tensor {
        dtype: DT_INT32
        tensor_shape {
          dim {
            size: 1
          }
        }
        int_val: -1
      }
    }
  }
}
node {
  name: "test_input/shuffle_batch_join/ExpandDims"
  op: "ExpandDims"
  input: "test_input/shuffle_batch_join/AddManySparseToTensorsMap"
  input: "test_input/shuffle_batch_join/ExpandDims/dim"
  attr {
    key: "T"
    value {
      type: DT_INT64
    }
  }
  attr {
    key: "Tdim"
    value {
      type: DT_INT32
    }
  }
  attr {
    key: "_output_shapes"
    value {
      list {
        shape {
          dim {
            size: -1
          }
          dim {
            size: 1
          }
        }
      }
    }
  }
}
node {
  name: "test_input/shuffle_batch_join/AddManySparseToTensorsMap_1"
  op: "AddManySparseToTensorsMap"
  input: "test_input/ParseExample_1/ParseExample"
  input: "test_input/ParseExample_1/ParseExample:1"
  input: "test_input/ParseExample_1/ParseExample:2"
  attr {
    key: "T"
    value {
      type: DT_INT64
    }
  }
  attr {
    key: "_output_shapes"
    value {
      list {
        shape {
          dim {
            size: -1
          }
        }
      }
    }
  }
  attr {
    key: "container"
    value {
      s: ""
    }
  }
  attr {
    key: "shared_name"
    value {
      s: "test_input/shuffle_batch_join/AddManySparseToTensorsMap"
    }
  }
}
node {
  name: "test_input/shuffle_batch_join/ExpandDims_1/dim"
  op: "Const"
  attr {
    key: "_output_shapes"
    value {
      list {
        shape {
          dim {
            size: 1
          }
        }
      }
    }
  }
  attr {
    key: "dtype"
    value {
      type: DT_INT32
    }
  }
  attr {
    key: "value"
    value {
      tensor {
        dtype: DT_INT32
        tensor_shape {
          dim {
            size: 1
          }
        }
        int_val: -1
      }
    }
  }
}
node {
  name: "test_input/shuffle_batch_join/ExpandDims_1"
  op: "ExpandDims"
  input: "test_input/shuffle_batch_join/AddManySparseToTensorsMap_1"
  input: "test_input/shuffle_batch_join/ExpandDims_1/dim"
  attr {
    key: "T"
    value {
      type: DT_INT64
    }
  }
  attr {
    key: "Tdim"
    value {
      type: DT_INT32
    }
  }
  attr {
    key: "_output_shapes"
    value {
      list {
        shape {
          dim {
            size: -1
          }
          dim {
            size: 1
          }
        }
      }
    }
  }
}
node {
  name: "test_input/shuffle_batch_join/random_shuffle_queue"
  op: "RandomShuffleQueueV2"
  attr {
    key: "_output_shapes"
    value {
      list {
        shape {
        }
      }
    }
  }
  attr {
    key: "capacity"
    value {
      i: 10
    }
  }
  attr {
    key: "component_types"
    value {
      list {
        type: DT_FLOAT
        type: DT_INT64
        type: DT_INT64
      }
    }
  }
  attr {
    key: "container"
    value {
      s: ""
    }
  }
  attr {
    key: "min_after_dequeue"
    value {
      i: 2
    }
  }
  attr {
    key: "seed"
    value {
      i: 0
    }
  }
  attr {
    key: "seed2"
    value {
      i: 0
    }
  }
  attr {
    key: "shapes"
    value {
      list {
        shape {
          dim {
            size: 8750
          }
        }
        shape {
          dim {
            size: 1
          }
        }
        shape {
          dim {
            size: 1
          }
        }
      }
    }
  }
  attr {
    key: "shared_name"
    value {
      s: ""
    }
  }
}
node {
  name: "test_input/shuffle_batch_join/random_shuffle_queue_EnqueueMany"
  op: "QueueEnqueueManyV2"
  input: "test_input/shuffle_batch_join/random_shuffle_queue"
  input: "test_input/ParseExample/ParseExample:3"
  input: "test_input/ParseExample/ParseExample:4"
  input: "test_input/shuffle_batch_join/ExpandDims"
  attr {
    key: "Tcomponents"
    value {
      list {
        type: DT_FLOAT
        type: DT_INT64
        type: DT_INT64
      }
    }
  }
  attr {
    key: "timeout_ms"
    value {
      i: -1
    }
  }
}
node {
  name: "test_input/shuffle_batch_join/random_shuffle_queue_EnqueueMany_1"
  op: "QueueEnqueueManyV2"
  input: "test_input/shuffle_batch_join/random_shuffle_queue"
  input: "test_input/ParseExample_1/ParseExample:3"
  input: "test_input/ParseExample_1/ParseExample:4"
  input: "test_input/shuffle_batch_join/ExpandDims_1"
  attr {
    key: "Tcomponents"
    value {
      list {
        type: DT_FLOAT
        type: DT_INT64
        type: DT_INT64
      }
    }
  }
  attr {
    key: "timeout_ms"
    value {
      i: -1
    }
  }
}
node {
  name: "test_input/shuffle_batch_join/random_shuffle_queue_Close"
  op: "QueueCloseV2"
  input: "test_input/shuffle_batch_join/random_shuffle_queue"
  attr {
    key: "cancel_pending_enqueues"
    value {
      b: false
    }
  }
}
node {
  name: "test_input/shuffle_batch_join/random_shuffle_queue_Close_1"
  op: "QueueCloseV2"
  input: "test_input/shuffle_batch_join/random_shuffle_queue"
  attr {
    key: "cancel_pending_enqueues"
    value {
      b: true
    }
  }
}
node {
  name: "test_input/shuffle_batch_join/random_shuffle_queue_Size"
  op: "QueueSizeV2"
  input: "test_input/shuffle_batch_join/random_shuffle_queue"
  attr {
    key: "_output_shapes"
    value {
      list {
        shape {
        }
      }
    }
  }
}
node {
  name: "test_input/shuffle_batch_join/sub/y"
  op: "Const"
  attr {
    key: "_output_shapes"
    value {
      list {
        shape {
        }
      }
    }
  }
  attr {
    key: "dtype"
    value {
      type: DT_INT32
    }
  }
  attr {
    key: "value"
    value {
      tensor {
        dtype: DT_INT32
        tensor_shape {
        }
        int_val: 2
      }
    }
  }
}
node {
  name: "test_input/shuffle_batch_join/sub"
  op: "Sub"
  input: "test_input/shuffle_batch_join/random_shuffle_queue_Size"
  input: "test_input/shuffle_batch_join/sub/y"
  attr {
    key: "T"
    value {
      type: DT_INT32
    }
  }
  attr {
    key: "_output_shapes"
    value {
      list {
        shape {
        }
      }
    }
  }
}
node {
  name: "test_input/shuffle_batch_join/Maximum/x"
  op: "Const"
  attr {
    key: "_output_shapes"
    value {
      list {
        shape {
        }
      }
    }
  }
  attr {
    key: "dtype"
    value {
      type: DT_INT32
    }
  }
  attr {
    key: "value"
    value {
      tensor {
        dtype: DT_INT32
        tensor_shape {
        }
        int_val: 0
      }
    }
  }
}
node {
  name: "test_input/shuffle_batch_join/Maximum"
  op: "Maximum"
  input: "test_input/shuffle_batch_join/Maximum/x"
  input: "test_input/shuffle_batch_join/sub"
  attr {
    key: "T"
    value {
      type: DT_INT32
    }
  }
  attr {
    key: "_output_shapes"
    value {
      list {
        shape {
        }
      }
    }
  }
}
node {
  name: "test_input/shuffle_batch_join/ToFloat"
  op: "Cast"
  input: "test_input/shuffle_batch_join/Maximum"
  attr {
    key: "DstT"
    value {
      type: DT_FLOAT
    }
  }
  attr {
    key: "SrcT"
    value {
      type: DT_INT32
    }
  }
  attr {
    key: "_output_shapes"
    value {
      list {
        shape {
        }
      }
    }
  }
}
node {
  name: "test_input/shuffle_batch_join/mul/y"
  op: "Const"
  attr {
    key: "_output_shapes"
    value {
      list {
        shape {
        }
      }
    }
  }
  attr {
    key: "dtype"
    value {
      type: DT_FLOAT
    }
  }
  attr {
    key: "value"
    value {
      tensor {
        dtype: DT_FLOAT
        tensor_shape {
        }
        float_val: 0.125
      }
    }
  }
}
node {
  name: "test_input/shuffle_batch_join/mul"
  op: "Mul"
  input: "test_input/shuffle_batch_join/ToFloat"
  input: "test_input/shuffle_batch_join/mul/y"
  attr {
    key: "T"
    value {
      type: DT_FLOAT
    }
  }
  attr {
    key: "_output_shapes"
    value {
      list {
        shape {
        }
      }
    }
  }
}
node {
  name: "test_input/shuffle_batch_join/fraction_over_2_of_8_full/tags"
  op: "Const"
  attr {
    key: "_output_shapes"
    value {
      list {
        shape {
        }
      }
    }
  }
  attr {
    key: "dtype"
    value {
      type: DT_STRING
    }
  }
  attr {
    key: "value"
    value {
      tensor {
        dtype: DT_STRING
        tensor_shape {
        }
        string_val: "test_input/shuffle_batch_join/fraction_over_2_of_8_full"
      }
    }
  }
}
node {
  name: "test_input/shuffle_batch_join/fraction_over_2_of_8_full"
  op: "ScalarSummary"
  input: "test_input/shuffle_batch_join/fraction_over_2_of_8_full/tags"
  input: "test_input/shuffle_batch_join/mul"
  attr {
    key: "T"
    value {
      type: DT_FLOAT
    }
  }
  attr {
    key: "_output_shapes"
    value {
      list {
        shape {
        }
      }
    }
  }
}
node {
  name: "test_input/shuffle_batch_join/n"
  op: "Const"
  attr {
    key: "_output_shapes"
    value {
      list {
        shape {
        }
      }
    }
  }
  attr {
    key: "dtype"
    value {
      type: DT_INT32
    }
  }
  attr {
    key: "value"
    value {
      tensor {
        dtype: DT_INT32
        tensor_shape {
        }
        int_val: 2
      }
    }
  }
}
node {
  name: "test_input/shuffle_batch_join"
  op: "QueueDequeueUpToV2"
  input: "test_input/shuffle_batch_join/random_shuffle_queue"
  input: "test_input/shuffle_batch_join/n"
  attr {
    key: "_output_shapes"
    value {
      list {
        shape {
          dim {
            size: -1
          }
          dim {
            size: 8750
          }
        }
        shape {
          dim {
            size: -1
          }
          dim {
            size: 1
          }
        }
        shape {
          dim {
            size: -1
          }
          dim {
            size: 1
          }
        }
      }
    }
  }
  attr {
    key: "component_types"
    value {
      list {
        type: DT_FLOAT
        type: DT_INT64
        type: DT_INT64
      }
    }
  }
  attr {
    key: "timeout_ms"
    value {
      i: -1
    }
  }
}
node {
  name: "test_input/shuffle_batch_join/Squeeze"
  op: "Squeeze"
  input: "test_input/shuffle_batch_join:2"
  attr {
    key: "T"
    value {
      type: DT_INT64
    }
  }
  attr {
    key: "_output_shapes"
    value {
      list {
        shape {
          dim {
            size: -1
          }
        }
      }
    }
  }
  attr {
    key: "squeeze_dims"
    value {
      list {
        i: 1
      }
    }
  }
}
node {
  name: "test_input/shuffle_batch_join/TakeManySparseFromTensorsMap"
  op: "TakeManySparseFromTensorsMap"
  input: "test_input/shuffle_batch_join/Squeeze"
  attr {
    key: "_class"
    value {
      list {
        s: "loc:@test_input/shuffle_batch_join/AddManySparseToTensorsMap"
      }
    }
  }
  attr {
    key: "_output_shapes"
    value {
      list {
        shape {
          dim {
            size: -1
          }
          dim {
            size: 2
          }
        }
        shape {
          dim {
            size: -1
          }
        }
        shape {
          dim {
            size: 2
          }
        }
      }
    }
  }
  attr {
    key: "container"
    value {
      s: ""
    }
  }
  attr {
    key: "dtype"
    value {
      type: DT_INT64
    }
  }
  attr {
    key: "shared_name"
    value {
      s: "test_input/shuffle_batch_join/AddManySparseToTensorsMap"
    }
  }
}
node {
  name: "test_input/shuffle_batch_join/control_dependency"
  op: "Identity"
  input: "test_input/shuffle_batch_join"
  input: "^test_input/shuffle_batch_join/TakeManySparseFromTensorsMap"
  attr {
    key: "T"
    value {
      type: DT_FLOAT
    }
  }
  attr {
    key: "_class"
    value {
      list {
        s: "loc:@test_input/shuffle_batch_join"
      }
    }
  }
  attr {
    key: "_output_shapes"
    value {
      list {
        shape {
          dim {
            size: -1
          }
          dim {
            size: 8750
          }
        }
      }
    }
  }
}
node {
  name: "test_input/shuffle_batch_join/control_dependency_1"
  op: "Identity"
  input: "test_input/shuffle_batch_join:1"
  input: "^test_input/shuffle_batch_join/TakeManySparseFromTensorsMap"
  attr {
    key: "T"
    value {
      type: DT_INT64
    }
  }
  attr {
    key: "_class"
    value {
      list {
        s: "loc:@test_input/shuffle_batch_join"
      }
    }
  }
  attr {
    key: "_output_shapes"
    value {
      list {
        shape {
          dim {
            size: -1
          }
          dim {
            size: 1
          }
        }
      }
    }
  }
}
node {
  name: "test_input/shuffle_batch_join/control_dependency_2"
  op: "Identity"
  input: "test_input/shuffle_batch_join/TakeManySparseFromTensorsMap"
  input: "^test_input/shuffle_batch_join"
  attr {
    key: "T"
    value {
      type: DT_INT64
    }
  }
  attr {
    key: "_class"
    value {
      list {
        s: "loc:@test_input/shuffle_batch_join/AddManySparseToTensorsMap"
      }
    }
  }
  attr {
    key: "_output_shapes"
    value {
      list {
        shape {
          dim {
            size: -1
          }
          dim {
            size: 2
          }
        }
      }
    }
  }
}
node {
  name: "test_input/shuffle_batch_join/control_dependency_3"
  op: "Identity"
  input: "test_input/shuffle_batch_join/TakeManySparseFromTensorsMap:1"
  input: "^test_input/shuffle_batch_join"
  attr {
    key: "T"
    value {
      type: DT_INT64
    }
  }
  attr {
    key: "_class"
    value {
      list {
        s: "loc:@test_input/shuffle_batch_join/AddManySparseToTensorsMap"
      }
    }
  }
  attr {
    key: "_output_shapes"
    value {
      list {
        shape {
          dim {
            size: -1
          }
        }
      }
    }
  }
}
node {
  name: "test_input/shuffle_batch_join/control_dependency_4"
  op: "Identity"
  input: "test_input/shuffle_batch_join/TakeManySparseFromTensorsMap:2"
  input: "^test_input/shuffle_batch_join"
  attr {
    key: "T"
    value {
      type: DT_INT64
    }
  }
  attr {
    key: "_class"
    value {
      list {
        s: "loc:@test_input/shuffle_batch_join/AddManySparseToTensorsMap"
      }
    }
  }
  attr {
    key: "_output_shapes"
    value {
      list {
        shape {
          dim {
            size: 2
          }
        }
      }
    }
  }
}
node {
  name: "PlaceholderWithDefault/input"
  op: "Const"
  attr {
    key: "_output_shapes"
    value {
      list {
        shape {
        }
      }
    }
  }
  attr {
    key: "dtype"
    value {
      type: DT_BOOL
    }
  }
  attr {
    key: "value"
    value {
      tensor {
        dtype: DT_BOOL
        tensor_shape {
        }
        bool_val: true
      }
    }
  }
}
node {
  name: "PlaceholderWithDefault"
  op: "PlaceholderWithDefault"
  input: "PlaceholderWithDefault/input"
  attr {
    key: "_output_shapes"
    value {
      list {
        shape {
        }
      }
    }
  }
  attr {
    key: "dtype"
    value {
      type: DT_BOOL
    }
  }
  attr {
    key: "shape"
    value {
      shape {
      }
    }
  }
}
node {
  name: "cond/Switch"
  op: "Switch"
  input: "PlaceholderWithDefault"
  input: "PlaceholderWithDefault"
  attr {
    key: "T"
    value {
      type: DT_BOOL
    }
  }
  attr {
    key: "_output_shapes"
    value {
      list {
        shape {
        }
        shape {
        }
      }
    }
  }
}
node {
  name: "cond/switch_t"
  op: "Identity"
  input: "cond/Switch:1"
  attr {
    key: "T"
    value {
      type: DT_BOOL
    }
  }
  attr {
    key: "_output_shapes"
    value {
      list {
        shape {
        }
      }
    }
  }
}
node {
  name: "cond/switch_f"
  op: "Identity"
  input: "cond/Switch"
  attr {
    key: "T"
    value {
      type: DT_BOOL
    }
  }
  attr {
    key: "_output_shapes"
    value {
      list {
        shape {
        }
      }
    }
  }
}
node {
  name: "cond/pred_id"
  op: "Identity"
  input: "PlaceholderWithDefault"
  attr {
    key: "T"
    value {
      type: DT_BOOL
    }
  }
  attr {
    key: "_output_shapes"
    value {
      list {
        shape {
        }
      }
    }
  }
}
node {
  name: "cond/Switch_1"
  op: "Switch"
  input: "train_input/shuffle_batch_join/control_dependency"
  input: "cond/pred_id"
  attr {
    key: "T"
    value {
      type: DT_FLOAT
    }
  }
  attr {
    key: "_class"
    value {
      list {
        s: "loc:@train_input/shuffle_batch_join"
      }
    }
  }
  attr {
    key: "_output_shapes"
    value {
      list {
        shape {
          dim {
            size: -1
          }
          dim {
            size: 8750
          }
        }
        shape {
          dim {
            size: -1
          }
          dim {
            size: 8750
          }
        }
      }
    }
  }
}
node {
  name: "cond/Switch_2"
  op: "Switch"
  input: "train_input/shuffle_batch_join/control_dependency_1"
  input: "cond/pred_id"
  attr {
    key: "T"
    value {
      type: DT_INT64
    }
  }
  attr {
    key: "_class"
    value {
      list {
        s: "loc:@train_input/shuffle_batch_join"
      }
    }
  }
  attr {
    key: "_output_shapes"
    value {
      list {
        shape {
          dim {
            size: -1
          }
          dim {
            size: 1
          }
        }
        shape {
          dim {
            size: -1
          }
          dim {
            size: 1
          }
        }
      }
    }
  }
}
node {
  name: "cond/Switch_3"
  op: "Switch"
  input: "train_input/shuffle_batch_join/control_dependency_3"
  input: "cond/pred_id"
  attr {
    key: "T"
    value {
      type: DT_INT64
    }
  }
  attr {
    key: "_class"
    value {
      list {
        s: "loc:@train_input/shuffle_batch_join/AddManySparseToTensorsMap"
      }
    }
  }
  attr {
    key: "_output_shapes"
    value {
      list {
        shape {
          dim {
            size: -1
          }
        }
        shape {
          dim {
            size: -1
          }
        }
      }
    }
  }
}
node {
  name: "cond/Switch_4"
  op: "Switch"
  input: "train_input/shuffle_batch_join/control_dependency_2"
  input: "cond/pred_id"
  attr {
    key: "T"
    value {
      type: DT_INT64
    }
  }
  attr {
    key: "_class"
    value {
      list {
        s: "loc:@train_input/shuffle_batch_join/AddManySparseToTensorsMap"
      }
    }
  }
  attr {
    key: "_output_shapes"
    value {
      list {
        shape {
          dim {
            size: -1
          }
          dim {
            size: 2
          }
        }
        shape {
          dim {
            size: -1
          }
          dim {
            size: 2
          }
        }
      }
    }
  }
}
node {
  name: "cond/Switch_5"
  op: "Switch"
  input: "train_input/shuffle_batch_join/control_dependency_4"
  input: "cond/pred_id"
  attr {
    key: "T"
    value {
      type: DT_INT64
    }
  }
  attr {
    key: "_class"
    value {
      list {
        s: "loc:@train_input/shuffle_batch_join/AddManySparseToTensorsMap"
      }
    }
  }
  attr {
    key: "_output_shapes"
    value {
      list {
        shape {
          dim {
            size: 2
          }
        }
        shape {
          dim {
            size: 2
          }
        }
      }
    }
  }
}
node {
  name: "cond/Switch_6"
  op: "Switch"
  input: "test_input/shuffle_batch_join/control_dependency"
  input: "cond/pred_id"
  attr {
    key: "T"
    value {
      type: DT_FLOAT
    }
  }
  attr {
    key: "_class"
    value {
      list {
        s: "loc:@test_input/shuffle_batch_join"
      }
    }
  }
  attr {
    key: "_output_shapes"
    value {
      list {
        shape {
          dim {
            size: -1
          }
          dim {
            size: 8750
          }
        }
        shape {
          dim {
            size: -1
          }
          dim {
            size: 8750
          }
        }
      }
    }
  }
}
node {
  name: "cond/Switch_7"
  op: "Switch"
  input: "test_input/shuffle_batch_join/control_dependency_1"
  input: "cond/pred_id"
  attr {
    key: "T"
    value {
      type: DT_INT64
    }
  }
  attr {
    key: "_class"
    value {
      list {
        s: "loc:@test_input/shuffle_batch_join"
      }
    }
  }
  attr {
    key: "_output_shapes"
    value {
      list {
        shape {
          dim {
            size: -1
          }
          dim {
            size: 1
          }
        }
        shape {
          dim {
            size: -1
          }
          dim {
            size: 1
          }
        }
      }
    }
  }
}
node {
  name: "cond/Switch_8"
  op: "Switch"
  input: "test_input/shuffle_batch_join/control_dependency_3"
  input: "cond/pred_id"
  attr {
    key: "T"
    value {
      type: DT_INT64
    }
  }
  attr {
    key: "_class"
    value {
      list {
        s: "loc:@test_input/shuffle_batch_join/AddManySparseToTensorsMap"
      }
    }
  }
  attr {
    key: "_output_shapes"
    value {
      list {
        shape {
          dim {
            size: -1
          }
        }
        shape {
          dim {
            size: -1
          }
        }
      }
    }
  }
}
node {
  name: "cond/Switch_9"
  op: "Switch"
  input: "test_input/shuffle_batch_join/control_dependency_2"
  input: "cond/pred_id"
  attr {
    key: "T"
    value {
      type: DT_INT64
    }
  }
  attr {
    key: "_class"
    value {
      list {
        s: "loc:@test_input/shuffle_batch_join/AddManySparseToTensorsMap"
      }
    }
  }
  attr {
    key: "_output_shapes"
    value {
      list {
        shape {
          dim {
            size: -1
          }
          dim {
            size: 2
          }
        }
        shape {
          dim {
            size: -1
          }
          dim {
            size: 2
          }
        }
      }
    }
  }
}
node {
  name: "cond/Switch_10"
  op: "Switch"
  input: "test_input/shuffle_batch_join/control_dependency_4"
  input: "cond/pred_id"
  attr {
    key: "T"
    value {
      type: DT_INT64
    }
  }
  attr {
    key: "_class"
    value {
      list {
        s: "loc:@test_input/shuffle_batch_join/AddManySparseToTensorsMap"
      }
    }
  }
  attr {
    key: "_output_shapes"
    value {
      list {
        shape {
          dim {
            size: 2
          }
        }
        shape {
          dim {
            size: 2
          }
        }
      }
    }
  }
}
node {
  name: "cond/Merge"
  op: "Merge"
  input: "cond/Switch_6"
  input: "cond/Switch_1:1"
  attr {
    key: "N"
    value {
      i: 2
    }
  }
  attr {
    key: "T"
    value {
      type: DT_FLOAT
    }
  }
  attr {
    key: "_output_shapes"
    value {
      list {
        shape {
          dim {
            size: -1
          }
          dim {
            size: 8750
          }
        }
        shape {
        }
      }
    }
  }
}
node {
  name: "cond/Merge_1"
  op: "Merge"
  input: "cond/Switch_7"
  input: "cond/Switch_2:1"
  attr {
    key: "N"
    value {
      i: 2
    }
  }
  attr {
    key: "T"
    value {
      type: DT_INT64
    }
  }
  attr {
    key: "_output_shapes"
    value {
      list {
        shape {
          dim {
            size: -1
          }
          dim {
            size: 1
          }
        }
        shape {
        }
      }
    }
  }
}
node {
  name: "cond/Merge_2"
  op: "Merge"
  input: "cond/Switch_8"
  input: "cond/Switch_3:1"
  attr {
    key: "N"
    value {
      i: 2
    }
  }
  attr {
    key: "T"
    value {
      type: DT_INT64
    }
  }
  attr {
    key: "_output_shapes"
    value {
      list {
        shape {
          dim {
            size: -1
          }
        }
        shape {
        }
      }
    }
  }
}
node {
  name: "cond/Merge_2/indices"
  op: "Merge"
  input: "cond/Switch_9"
  input: "cond/Switch_4:1"
  attr {
    key: "N"
    value {
      i: 2
    }
  }
  attr {
    key: "T"
    value {
      type: DT_INT64
    }
  }
  attr {
    key: "_output_shapes"
    value {
      list {
        shape {
          dim {
            size: -1
          }
          dim {
            size: 2
          }
        }
        shape {
        }
      }
    }
  }
}
node {
  name: "cond/Merge_2/dense_shape"
  op: "Merge"
  input: "cond/Switch_10"
  input: "cond/Switch_5:1"
  attr {
    key: "N"
    value {
      i: 2
    }
  }
  attr {
    key: "T"
    value {
      type: DT_INT64
    }
  }
  attr {
    key: "_output_shapes"
    value {
      list {
        shape {
          dim {
            size: 2
          }
        }
        shape {
        }
      }
    }
  }
}
node {
  name: "Cast"
  op: "Cast"
  input: "cond/Merge_1"
  attr {
    key: "DstT"
    value {
      type: DT_INT32
    }
  }
  attr {
    key: "SrcT"
    value {
      type: DT_INT64
    }
  }
  attr {
    key: "_output_shapes"
    value {
      list {
        shape {
          dim {
            size: -1
          }
          dim {
            size: 1
          }
        }
      }
    }
  }
}
node {
  name: "Cast_1"
  op: "Cast"
  input: "cond/Merge_2"
  attr {
    key: "DstT"
    value {
      type: DT_INT32
    }
  }
  attr {
    key: "SrcT"
    value {
      type: DT_INT64
    }
  }
  attr {
    key: "_output_shapes"
    value {
      list {
        shape {
          dim {
            size: -1
          }
        }
      }
    }
  }
}
node {
  name: "Reshape/shape"
  op: "Const"
  attr {
    key: "_output_shapes"
    value {
      list {
        shape {
          dim {
            size: 4
          }
        }
      }
    }
  }
  attr {
    key: "dtype"
    value {
      type: DT_INT32
    }
  }
  attr {
    key: "value"
    value {
      tensor {
        dtype: DT_INT32
        tensor_shape {
          dim {
            size: 4
          }
        }
        tensor_content: "\002\000\000\000\031\000\000\000^\001\000\000\001\000\000\000"
      }
    }
  }
}
node {
  name: "Reshape"
  op: "Reshape"
  input: "cond/Merge"
  input: "Reshape/shape"
  attr {
    key: "T"
    value {
      type: DT_FLOAT
    }
  }
  attr {
    key: "Tshape"
    value {
      type: DT_INT32
    }
  }
  attr {
    key: "_output_shapes"
    value {
      list {
        shape {
          dim {
            size: 2
          }
          dim {
            size: 25
          }
          dim {
            size: 350
          }
          dim {
            size: 1
          }
        }
      }
    }
  }
}
node {
  name: "Reshape_1/shape"
  op: "Const"
  attr {
    key: "_output_shapes"
    value {
      list {
        shape {
          dim {
            size: 1
          }
        }
      }
    }
  }
  attr {
    key: "dtype"
    value {
      type: DT_INT32
    }
  }
  attr {
    key: "value"
    value {
      tensor {
        dtype: DT_INT32
        tensor_shape {
          dim {
            size: 1
          }
        }
        int_val: 2
      }
    }
  }
}
node {
  name: "Reshape_1"
  op: "Reshape"
  input: "Cast"
  input: "Reshape_1/shape"
  attr {
    key: "T"
    value {
      type: DT_INT32
    }
  }
  attr {
    key: "Tshape"
    value {
      type: DT_INT32
    }
  }
  attr {
    key: "_output_shapes"
    value {
      list {
        shape {
          dim {
            size: 2
          }
        }
      }
    }
  }
}
node {
  name: "model/input_raw/tag"
  op: "Const"
  attr {
    key: "_output_shapes"
    value {
      list {
        shape {
        }
      }
    }
  }
  attr {
    key: "dtype"
    value {
      type: DT_STRING
    }
  }
  attr {
    key: "value"
    value {
      tensor {
        dtype: DT_STRING
        tensor_shape {
        }
        string_val: "model/input_raw"
      }
    }
  }
}
node {
  name: "model/input_raw"
  op: "HistogramSummary"
  input: "model/input_raw/tag"
  input: "cond/Merge"
  attr {
    key: "T"
    value {
      type: DT_FLOAT
    }
  }
  attr {
    key: "_output_shapes"
    value {
      list {
        shape {
        }
      }
    }
  }
}
node {
  name: "model/Reshape/shape"
  op: "Const"
  attr {
    key: "_output_shapes"
    value {
      list {
        shape {
          dim {
            size: 1
          }
        }
      }
    }
  }
  attr {
    key: "dtype"
    value {
      type: DT_INT32
    }
  }
  attr {
    key: "value"
    value {
      tensor {
        dtype: DT_INT32
        tensor_shape {
          dim {
            size: 1
          }
        }
        int_val: 2
      }
    }
  }
}
node {
  name: "model/Reshape"
  op: "Reshape"
  input: "Reshape_1"
  input: "model/Reshape/shape"
  attr {
    key: "T"
    value {
      type: DT_INT32
    }
  }
  attr {
    key: "Tshape"
    value {
      type: DT_INT32
    }
  }
  attr {
    key: "_output_shapes"
    value {
      list {
        shape {
          dim {
            size: 2
          }
        }
      }
    }
  }
}
node {
  name: "model/Reshape_1/shape"
  op: "Const"
  attr {
    key: "_output_shapes"
    value {
      list {
        shape {
          dim {
            size: 4
          }
        }
      }
    }
  }
  attr {
    key: "dtype"
    value {
      type: DT_INT32
    }
  }
  attr {
    key: "value"
    value {
      tensor {
        dtype: DT_INT32
        tensor_shape {
          dim {
            size: 4
          }
        }
        tensor_content: "\002\000\000\000\031\000\000\000^\001\000\000\001\000\000\000"
      }
    }
  }
}
node {
  name: "model/Reshape_1"
  op: "Reshape"
  input: "Reshape"
  input: "model/Reshape_1/shape"
  attr {
    key: "T"
    value {
      type: DT_FLOAT
    }
  }
  attr {
    key: "Tshape"
    value {
      type: DT_INT32
    }
  }
  attr {
    key: "_output_shapes"
    value {
      list {
        shape {
          dim {
            size: 2
          }
          dim {
            size: 25
          }
          dim {
            size: 350
          }
          dim {
            size: 1
          }
        }
      }
    }
  }
}
node {
  name: "conv1/weights/Initializer/random_uniform/shape"
  op: "Const"
  attr {
    key: "_class"
    value {
      list {
        s: "loc:@conv1/weights"
      }
    }
  }
  attr {
    key: "_output_shapes"
    value {
      list {
        shape {
          dim {
            size: 4
          }
        }
      }
    }
  }
  attr {
    key: "dtype"
    value {
      type: DT_INT32
    }
  }
  attr {
    key: "value"
    value {
      tensor {
        dtype: DT_INT32
        tensor_shape {
          dim {
            size: 4
          }
        }
        tensor_content: "\005\000\000\000\005\000\000\000\001\000\000\000\020\000\000\000"
      }
    }
  }
}
node {
  name: "conv1/weights/Initializer/random_uniform/min"
  op: "Const"
  attr {
    key: "_class"
    value {
      list {
        s: "loc:@conv1/weights"
      }
    }
  }
  attr {
    key: "_output_shapes"
    value {
      list {
        shape {
        }
      }
    }
  }
  attr {
    key: "dtype"
    value {
      type: DT_FLOAT
    }
  }
  attr {
    key: "value"
    value {
      tensor {
        dtype: DT_FLOAT
        tensor_shape {
        }
        float_val: -0.11881770193576813
      }
    }
  }
}
node {
  name: "conv1/weights/Initializer/random_uniform/max"
  op: "Const"
  attr {
    key: "_class"
    value {
      list {
        s: "loc:@conv1/weights"
      }
    }
  }
  attr {
    key: "_output_shapes"
    value {
      list {
        shape {
        }
      }
    }
  }
  attr {
    key: "dtype"
    value {
      type: DT_FLOAT
    }
  }
  attr {
    key: "value"
    value {
      tensor {
        dtype: DT_FLOAT
        tensor_shape {
        }
        float_val: 0.11881770193576813
      }
    }
  }
}
node {
  name: "conv1/weights/Initializer/random_uniform/RandomUniform"
  op: "RandomUniform"
  input: "conv1/weights/Initializer/random_uniform/shape"
  attr {
    key: "T"
    value {
      type: DT_INT32
    }
  }
  attr {
    key: "_class"
    value {
      list {
        s: "loc:@conv1/weights"
      }
    }
  }
  attr {
    key: "_output_shapes"
    value {
      list {
        shape {
          dim {
            size: 5
          }
          dim {
            size: 5
          }
          dim {
            size: 1
          }
          dim {
            size: 16
          }
        }
      }
    }
  }
  attr {
    key: "dtype"
    value {
      type: DT_FLOAT
    }
  }
  attr {
    key: "seed"
    value {
      i: 0
    }
  }
  attr {
    key: "seed2"
    value {
      i: 0
    }
  }
}
node {
  name: "conv1/weights/Initializer/random_uniform/sub"
  op: "Sub"
  input: "conv1/weights/Initializer/random_uniform/max"
  input: "conv1/weights/Initializer/random_uniform/min"
  attr {
    key: "T"
    value {
      type: DT_FLOAT
    }
  }
  attr {
    key: "_class"
    value {
      list {
        s: "loc:@conv1/weights"
      }
    }
  }
  attr {
    key: "_output_shapes"
    value {
      list {
        shape {
        }
      }
    }
  }
}
node {
  name: "conv1/weights/Initializer/random_uniform/mul"
  op: "Mul"
  input: "conv1/weights/Initializer/random_uniform/RandomUniform"
  input: "conv1/weights/Initializer/random_uniform/sub"
  attr {
    key: "T"
    value {
      type: DT_FLOAT
    }
  }
  attr {
    key: "_class"
    value {
      list {
        s: "loc:@conv1/weights"
      }
    }
  }
  attr {
    key: "_output_shapes"
    value {
      list {
        shape {
          dim {
            size: 5
          }
          dim {
            size: 5
          }
          dim {
            size: 1
          }
          dim {
            size: 16
          }
        }
      }
    }
  }
}
node {
  name: "conv1/weights/Initializer/random_uniform"
  op: "Add"
  input: "conv1/weights/Initializer/random_uniform/mul"
  input: "conv1/weights/Initializer/random_uniform/min"
  attr {
    key: "T"
    value {
      type: DT_FLOAT
    }
  }
  attr {
    key: "_class"
    value {
      list {
        s: "loc:@conv1/weights"
      }
    }
  }
  attr {
    key: "_output_shapes"
    value {
      list {
        shape {
          dim {
            size: 5
          }
          dim {
            size: 5
          }
          dim {
            size: 1
          }
          dim {
            size: 16
          }
        }
      }
    }
  }
}
node {
  name: "conv1/weights"
  op: "VariableV2"
  attr {
    key: "_class"
    value {
      list {
        s: "loc:@conv1/weights"
      }
    }
  }
  attr {
    key: "_output_shapes"
    value {
      list {
        shape {
          dim {
            size: 5
          }
          dim {
            size: 5
          }
          dim {
            size: 1
          }
          dim {
            size: 16
          }
        }
      }
    }
  }
  attr {
    key: "container"
    value {
      s: ""
    }
  }
  attr {
    key: "dtype"
    value {
      type: DT_FLOAT
    }
  }
  attr {
    key: "shape"
    value {
      shape {
        dim {
          size: 5
        }
        dim {
          size: 5
        }
        dim {
          size: 1
        }
        dim {
          size: 16
        }
      }
    }
  }
  attr {
    key: "shared_name"
    value {
      s: ""
    }
  }
}
node {
  name: "conv1/weights/Assign"
  op: "Assign"
  input: "conv1/weights"
  input: "conv1/weights/Initializer/random_uniform"
  attr {
    key: "T"
    value {
      type: DT_FLOAT
    }
  }
  attr {
    key: "_class"
    value {
      list {
        s: "loc:@conv1/weights"
      }
    }
  }
  attr {
    key: "_output_shapes"
    value {
      list {
        shape {
          dim {
            size: 5
          }
          dim {
            size: 5
          }
          dim {
            size: 1
          }
          dim {
            size: 16
          }
        }
      }
    }
  }
  attr {
    key: "use_locking"
    value {
      b: true
    }
  }
  attr {
    key: "validate_shape"
    value {
      b: true
    }
  }
}
node {
  name: "conv1/weights/read"
  op: "Identity"
  input: "conv1/weights"
  attr {
    key: "T"
    value {
      type: DT_FLOAT
    }
  }
  attr {
    key: "_class"
    value {
      list {
        s: "loc:@conv1/weights"
      }
    }
  }
  attr {
    key: "_output_shapes"
    value {
      list {
        shape {
          dim {
            size: 5
          }
          dim {
            size: 5
          }
          dim {
            size: 1
          }
          dim {
            size: 16
          }
        }
      }
    }
  }
}
node {
  name: "model/conv1/dilation_rate"
  op: "Const"
  attr {
    key: "_output_shapes"
    value {
      list {
        shape {
          dim {
            size: 2
          }
        }
      }
    }
  }
  attr {
    key: "dtype"
    value {
      type: DT_INT32
    }
  }
  attr {
    key: "value"
    value {
      tensor {
        dtype: DT_INT32
        tensor_shape {
          dim {
            size: 2
          }
        }
        tensor_content: "\001\000\000\000\001\000\000\000"
      }
    }
  }
}
node {
  name: "model/conv1/Conv2D"
  op: "Conv2D"
  input: "model/Reshape_1"
  input: "conv1/weights/read"
  attr {
    key: "T"
    value {
      type: DT_FLOAT
    }
  }
  attr {
    key: "_output_shapes"
    value {
      list {
        shape {
          dim {
            size: 2
          }
          dim {
            size: 25
          }
          dim {
            size: 350
          }
          dim {
            size: 16
          }
        }
      }
    }
  }
  attr {
    key: "data_format"
    value {
      s: "NHWC"
    }
  }
  attr {
    key: "dilations"
    value {
      list {
        i: 1
        i: 1
        i: 1
        i: 1
      }
    }
  }
  attr {
    key: "padding"
    value {
      s: "SAME"
    }
  }
  attr {
    key: "strides"
    value {
      list {
        i: 1
        i: 1
        i: 1
        i: 1
      }
    }
  }
  attr {
    key: "use_cudnn_on_gpu"
    value {
      b: true
    }
  }
}
node {
  name: "conv1/BatchNorm/beta/Initializer/zeros/shape_as_tensor"
  op: "Const"
  attr {
    key: "_class"
    value {
      list {
        s: "loc:@conv1/BatchNorm/beta"
      }
    }
  }
  attr {
    key: "_output_shapes"
    value {
      list {
        shape {
          dim {
            size: 1
          }
        }
      }
    }
  }
  attr {
    key: "dtype"
    value {
      type: DT_INT32
    }
  }
  attr {
    key: "value"
    value {
      tensor {
        dtype: DT_INT32
        tensor_shape {
          dim {
            size: 1
          }
        }
        int_val: 16
      }
    }
  }
}
node {
  name: "conv1/BatchNorm/beta/Initializer/zeros/Const"
  op: "Const"
  attr {
    key: "_class"
    value {
      list {
        s: "loc:@conv1/BatchNorm/beta"
      }
    }
  }
  attr {
    key: "_output_shapes"
    value {
      list {
        shape {
        }
      }
    }
  }
  attr {
    key: "dtype"
    value {
      type: DT_FLOAT
    }
  }
  attr {
    key: "value"
    value {
      tensor {
        dtype: DT_FLOAT
        tensor_shape {
        }
        float_val: 0.0
      }
    }
  }
}
node {
  name: "conv1/BatchNorm/beta/Initializer/zeros"
  op: "Fill"
  input: "conv1/BatchNorm/beta/Initializer/zeros/shape_as_tensor"
  input: "conv1/BatchNorm/beta/Initializer/zeros/Const"
  attr {
    key: "T"
    value {
      type: DT_FLOAT
    }
  }
  attr {
    key: "_class"
    value {
      list {
        s: "loc:@conv1/BatchNorm/beta"
      }
    }
  }
  attr {
    key: "_output_shapes"
    value {
      list {
        shape {
          dim {
            size: 16
          }
        }
      }
    }
  }
  attr {
    key: "index_type"
    value {
      type: DT_INT32
    }
  }
}
node {
  name: "conv1/BatchNorm/beta"
  op: "VariableV2"
  attr {
    key: "_class"
    value {
      list {
        s: "loc:@conv1/BatchNorm/beta"
      }
    }
  }
  attr {
    key: "_output_shapes"
    value {
      list {
        shape {
          dim {
            size: 16
          }
        }
      }
    }
  }
  attr {
    key: "container"
    value {
      s: ""
    }
  }
  attr {
    key: "dtype"
    value {
      type: DT_FLOAT
    }
  }
  attr {
    key: "shape"
    value {
      shape {
        dim {
          size: 16
        }
      }
    }
  }
  attr {
    key: "shared_name"
    value {
      s: ""
    }
  }
}
node {
  name: "conv1/BatchNorm/beta/Assign"
  op: "Assign"
  input: "conv1/BatchNorm/beta"
  input: "conv1/BatchNorm/beta/Initializer/zeros"
  attr {
    key: "T"
    value {
      type: DT_FLOAT
    }
  }
  attr {
    key: "_class"
    value {
      list {
        s: "loc:@conv1/BatchNorm/beta"
      }
    }
  }
  attr {
    key: "_output_shapes"
    value {
      list {
        shape {
          dim {
            size: 16
          }
        }
      }
    }
  }
  attr {
    key: "use_locking"
    value {
      b: true
    }
  }
  attr {
    key: "validate_shape"
    value {
      b: true
    }
  }
}
node {
  name: "conv1/BatchNorm/beta/read"
  op: "Identity"
  input: "conv1/BatchNorm/beta"
  attr {
    key: "T"
    value {
      type: DT_FLOAT
    }
  }
  attr {
    key: "_class"
    value {
      list {
        s: "loc:@conv1/BatchNorm/beta"
      }
    }
  }
  attr {
    key: "_output_shapes"
    value {
      list {
        shape {
          dim {
            size: 16
          }
        }
      }
    }
  }
}
node {
  name: "model/conv1/BatchNorm/Const"
  op: "Const"
  attr {
    key: "_output_shapes"
    value {
      list {
        shape {
          dim {
            size: 16
          }
        }
      }
    }
  }
  attr {
    key: "dtype"
    value {
      type: DT_FLOAT
    }
  }
  attr {
    key: "value"
    value {
      tensor {
        dtype: DT_FLOAT
        tensor_shape {
          dim {
            size: 16
          }
        }
        float_val: 1.0
      }
    }
  }
}
node {
  name: "conv1/BatchNorm/moving_mean/Initializer/zeros/shape_as_tensor"
  op: "Const"
  attr {
    key: "_class"
    value {
      list {
        s: "loc:@conv1/BatchNorm/moving_mean"
      }
    }
  }
  attr {
    key: "_output_shapes"
    value {
      list {
        shape {
          dim {
            size: 1
          }
        }
      }
    }
  }
  attr {
    key: "dtype"
    value {
      type: DT_INT32
    }
  }
  attr {
    key: "value"
    value {
      tensor {
        dtype: DT_INT32
        tensor_shape {
          dim {
            size: 1
          }
        }
        int_val: 16
      }
    }
  }
}
node {
  name: "conv1/BatchNorm/moving_mean/Initializer/zeros/Const"
  op: "Const"
  attr {
    key: "_class"
    value {
      list {
        s: "loc:@conv1/BatchNorm/moving_mean"
      }
    }
  }
  attr {
    key: "_output_shapes"
    value {
      list {
        shape {
        }
      }
    }
  }
  attr {
    key: "dtype"
    value {
      type: DT_FLOAT
    }
  }
  attr {
    key: "value"
    value {
      tensor {
        dtype: DT_FLOAT
        tensor_shape {
        }
        float_val: 0.0
      }
    }
  }
}
node {
  name: "conv1/BatchNorm/moving_mean/Initializer/zeros"
  op: "Fill"
  input: "conv1/BatchNorm/moving_mean/Initializer/zeros/shape_as_tensor"
  input: "conv1/BatchNorm/moving_mean/Initializer/zeros/Const"
  attr {
    key: "T"
    value {
      type: DT_FLOAT
    }
  }
  attr {
    key: "_class"
    value {
      list {
        s: "loc:@conv1/BatchNorm/moving_mean"
      }
    }
  }
  attr {
    key: "_output_shapes"
    value {
      list {
        shape {
          dim {
            size: 16
          }
        }
      }
    }
  }
  attr {
    key: "index_type"
    value {
      type: DT_INT32
    }
  }
}
node {
  name: "conv1/BatchNorm/moving_mean"
  op: "VariableV2"
  attr {
    key: "_class"
    value {
      list {
        s: "loc:@conv1/BatchNorm/moving_mean"
      }
    }
  }
  attr {
    key: "_output_shapes"
    value {
      list {
        shape {
          dim {
            size: 16
          }
        }
      }
    }
  }
  attr {
    key: "container"
    value {
      s: ""
    }
  }
  attr {
    key: "dtype"
    value {
      type: DT_FLOAT
    }
  }
  attr {
    key: "shape"
    value {
      shape {
        dim {
          size: 16
        }
      }
    }
  }
  attr {
    key: "shared_name"
    value {
      s: ""
    }
  }
}
node {
  name: "conv1/BatchNorm/moving_mean/Assign"
  op: "Assign"
  input: "conv1/BatchNorm/moving_mean"
  input: "conv1/BatchNorm/moving_mean/Initializer/zeros"
  attr {
    key: "T"
    value {
      type: DT_FLOAT
    }
  }
  attr {
    key: "_class"
    value {
      list {
        s: "loc:@conv1/BatchNorm/moving_mean"
      }
    }
  }
  attr {
    key: "_output_shapes"
    value {
      list {
        shape {
          dim {
            size: 16
          }
        }
      }
    }
  }
  attr {
    key: "use_locking"
    value {
      b: true
    }
  }
  attr {
    key: "validate_shape"
    value {
      b: true
    }
  }
}
node {
  name: "conv1/BatchNorm/moving_mean/read"
  op: "Identity"
  input: "conv1/BatchNorm/moving_mean"
  attr {
    key: "T"
    value {
      type: DT_FLOAT
    }
  }
  attr {
    key: "_class"
    value {
      list {
        s: "loc:@conv1/BatchNorm/moving_mean"
      }
    }
  }
  attr {
    key: "_output_shapes"
    value {
      list {
        shape {
          dim {
            size: 16
          }
        }
      }
    }
  }
}
node {
  name: "conv1/BatchNorm/moving_variance/Initializer/ones/shape_as_tensor"
  op: "Const"
  attr {
    key: "_class"
    value {
      list {
        s: "loc:@conv1/BatchNorm/moving_variance"
      }
    }
  }
  attr {
    key: "_output_shapes"
    value {
      list {
        shape {
          dim {
            size: 1
          }
        }
      }
    }
  }
  attr {
    key: "dtype"
    value {
      type: DT_INT32
    }
  }
  attr {
    key: "value"
    value {
      tensor {
        dtype: DT_INT32
        tensor_shape {
          dim {
            size: 1
          }
        }
        int_val: 16
      }
    }
  }
}
node {
  name: "conv1/BatchNorm/moving_variance/Initializer/ones/Const"
  op: "Const"
  attr {
    key: "_class"
    value {
      list {
        s: "loc:@conv1/BatchNorm/moving_variance"
      }
    }
  }
  attr {
    key: "_output_shapes"
    value {
      list {
        shape {
        }
      }
    }
  }
  attr {
    key: "dtype"
    value {
      type: DT_FLOAT
    }
  }
  attr {
    key: "value"
    value {
      tensor {
        dtype: DT_FLOAT
        tensor_shape {
        }
        float_val: 1.0
      }
    }
  }
}
node {
  name: "conv1/BatchNorm/moving_variance/Initializer/ones"
  op: "Fill"
  input: "conv1/BatchNorm/moving_variance/Initializer/ones/shape_as_tensor"
  input: "conv1/BatchNorm/moving_variance/Initializer/ones/Const"
  attr {
    key: "T"
    value {
      type: DT_FLOAT
    }
  }
  attr {
    key: "_class"
    value {
      list {
        s: "loc:@conv1/BatchNorm/moving_variance"
      }
    }
  }
  attr {
    key: "_output_shapes"
    value {
      list {
        shape {
          dim {
            size: 16
          }
        }
      }
    }
  }
  attr {
    key: "index_type"
    value {
      type: DT_INT32
    }
  }
}
node {
  name: "conv1/BatchNorm/moving_variance"
  op: "VariableV2"
  attr {
    key: "_class"
    value {
      list {
        s: "loc:@conv1/BatchNorm/moving_variance"
      }
    }
  }
  attr {
    key: "_output_shapes"
    value {
      list {
        shape {
          dim {
            size: 16
          }
        }
      }
    }
  }
  attr {
    key: "container"
    value {
      s: ""
    }
  }
  attr {
    key: "dtype"
    value {
      type: DT_FLOAT
    }
  }
  attr {
    key: "shape"
    value {
      shape {
        dim {
          size: 16
        }
      }
    }
  }
  attr {
    key: "shared_name"
    value {
      s: ""
    }
  }
}
node {
  name: "conv1/BatchNorm/moving_variance/Assign"
  op: "Assign"
  input: "conv1/BatchNorm/moving_variance"
  input: "conv1/BatchNorm/moving_variance/Initializer/ones"
  attr {
    key: "T"
    value {
      type: DT_FLOAT
    }
  }
  attr {
    key: "_class"
    value {
      list {
        s: "loc:@conv1/BatchNorm/moving_variance"
      }
    }
  }
  attr {
    key: "_output_shapes"
    value {
      list {
        shape {
          dim {
            size: 16
          }
        }
      }
    }
  }
  attr {
    key: "use_locking"
    value {
      b: true
    }
  }
  attr {
    key: "validate_shape"
    value {
      b: true
    }
  }
}
node {
  name: "conv1/BatchNorm/moving_variance/read"
  op: "Identity"
  input: "conv1/BatchNorm/moving_variance"
  attr {
    key: "T"
    value {
      type: DT_FLOAT
    }
  }
  attr {
    key: "_class"
    value {
      list {
        s: "loc:@conv1/BatchNorm/moving_variance"
      }
    }
  }
  attr {
    key: "_output_shapes"
    value {
      list {
        shape {
          dim {
            size: 16
          }
        }
      }
    }
  }
}
node {
  name: "model/conv1/BatchNorm/cond/Switch"
  op: "Switch"
  input: "PlaceholderWithDefault"
  input: "PlaceholderWithDefault"
  attr {
    key: "T"
    value {
      type: DT_BOOL
    }
  }
  attr {
    key: "_output_shapes"
    value {
      list {
        shape {
        }
        shape {
        }
      }
    }
  }
}
node {
  name: "model/conv1/BatchNorm/cond/switch_t"
  op: "Identity"
  input: "model/conv1/BatchNorm/cond/Switch:1"
  attr {
    key: "T"
    value {
      type: DT_BOOL
    }
  }
  attr {
    key: "_output_shapes"
    value {
      list {
        shape {
        }
      }
    }
  }
}
node {
  name: "model/conv1/BatchNorm/cond/switch_f"
  op: "Identity"
  input: "model/conv1/BatchNorm/cond/Switch"
  attr {
    key: "T"
    value {
      type: DT_BOOL
    }
  }
  attr {
    key: "_output_shapes"
    value {
      list {
        shape {
        }
      }
    }
  }
}
node {
  name: "model/conv1/BatchNorm/cond/pred_id"
  op: "Identity"
  input: "PlaceholderWithDefault"
  attr {
    key: "T"
    value {
      type: DT_BOOL
    }
  }
  attr {
    key: "_output_shapes"
    value {
      list {
        shape {
        }
      }
    }
  }
}
node {
  name: "model/conv1/BatchNorm/cond/Const"
  op: "Const"
  input: "^model/conv1/BatchNorm/cond/switch_t"
  attr {
    key: "_output_shapes"
    value {
      list {
        shape {
          dim {
          }
        }
      }
    }
  }
  attr {
    key: "dtype"
    value {
      type: DT_FLOAT
    }
  }
  attr {
    key: "value"
    value {
      tensor {
        dtype: DT_FLOAT
        tensor_shape {
          dim {
          }
        }
      }
    }
  }
}
node {
  name: "model/conv1/BatchNorm/cond/Const_1"
  op: "Const"
  input: "^model/conv1/BatchNorm/cond/switch_t"
  attr {
    key: "_output_shapes"
    value {
      list {
        shape {
          dim {
          }
        }
      }
    }
  }
  attr {
    key: "dtype"
    value {
      type: DT_FLOAT
    }
  }
  attr {
    key: "value"
    value {
      tensor {
        dtype: DT_FLOAT
        tensor_shape {
          dim {
          }
        }
      }
    }
  }
}
node {
  name: "model/conv1/BatchNorm/cond/FusedBatchNorm"
  op: "FusedBatchNorm"
  input: "model/conv1/BatchNorm/cond/FusedBatchNorm/Switch:1"
  input: "model/conv1/BatchNorm/cond/FusedBatchNorm/Switch_1:1"
  input: "model/conv1/BatchNorm/cond/FusedBatchNorm/Switch_2:1"
  input: "model/conv1/BatchNorm/cond/Const"
  input: "model/conv1/BatchNorm/cond/Const_1"
  attr {
    key: "T"
    value {
      type: DT_FLOAT
    }
  }
  attr {
    key: "_output_shapes"
    value {
      list {
        shape {
          dim {
            size: 2
          }
          dim {
            size: 25
          }
          dim {
            size: 350
          }
          dim {
            size: 16
          }
        }
        shape {
          dim {
            size: 16
          }
        }
        shape {
          dim {
            size: 16
          }
        }
        shape {
          dim {
            size: 16
          }
        }
        shape {
          dim {
            size: 16
          }
        }
      }
    }
  }
  attr {
    key: "data_format"
    value {
      s: "NHWC"
    }
  }
  attr {
    key: "epsilon"
    value {
      f: 0.0010000000474974513
    }
  }
  attr {
    key: "is_training"
    value {
      b: true
    }
  }
}
node {
  name: "model/conv1/BatchNorm/cond/FusedBatchNorm/Switch"
  op: "Switch"
  input: "model/conv1/Conv2D"
  input: "model/conv1/BatchNorm/cond/pred_id"
  attr {
    key: "T"
    value {
      type: DT_FLOAT
    }
  }
  attr {
    key: "_class"
    value {
      list {
        s: "loc:@model/conv1/Conv2D"
      }
    }
  }
  attr {
    key: "_output_shapes"
    value {
      list {
        shape {
          dim {
            size: 2
          }
          dim {
            size: 25
          }
          dim {
            size: 350
          }
          dim {
            size: 16
          }
        }
        shape {
          dim {
            size: 2
          }
          dim {
            size: 25
          }
          dim {
            size: 350
          }
          dim {
            size: 16
          }
        }
      }
    }
  }
}
node {
  name: "model/conv1/BatchNorm/cond/FusedBatchNorm/Switch_1"
  op: "Switch"
  input: "model/conv1/BatchNorm/Const"
  input: "model/conv1/BatchNorm/cond/pred_id"
  attr {
    key: "T"
    value {
      type: DT_FLOAT
    }
  }
  attr {
    key: "_class"
    value {
      list {
        s: "loc:@model/conv1/BatchNorm/Const"
      }
    }
  }
  attr {
    key: "_output_shapes"
    value {
      list {
        shape {
          dim {
            size: 16
          }
        }
        shape {
          dim {
            size: 16
          }
        }
      }
    }
  }
}
node {
  name: "model/conv1/BatchNorm/cond/FusedBatchNorm/Switch_2"
  op: "Switch"
  input: "conv1/BatchNorm/beta/read"
  input: "model/conv1/BatchNorm/cond/pred_id"
  attr {
    key: "T"
    value {
      type: DT_FLOAT
    }
  }
  attr {
    key: "_class"
    value {
      list {
        s: "loc:@conv1/BatchNorm/beta"
      }
    }
  }
  attr {
    key: "_output_shapes"
    value {
      list {
        shape {
          dim {
            size: 16
          }
        }
        shape {
          dim {
            size: 16
          }
        }
      }
    }
  }
}
node {
  name: "model/conv1/BatchNorm/cond/FusedBatchNorm_1"
  op: "FusedBatchNorm"
  input: "model/conv1/BatchNorm/cond/FusedBatchNorm_1/Switch"
  input: "model/conv1/BatchNorm/cond/FusedBatchNorm_1/Switch_1"
  input: "model/conv1/BatchNorm/cond/FusedBatchNorm_1/Switch_2"
  input: "model/conv1/BatchNorm/cond/FusedBatchNorm_1/Switch_3"
  input: "model/conv1/BatchNorm/cond/FusedBatchNorm_1/Switch_4"
  attr {
    key: "T"
    value {
      type: DT_FLOAT
    }
  }
  attr {
    key: "_output_shapes"
    value {
      list {
        shape {
          dim {
            size: 2
          }
          dim {
            size: 25
          }
          dim {
            size: 350
          }
          dim {
            size: 16
          }
        }
        shape {
          dim {
            size: 16
          }
        }
        shape {
          dim {
            size: 16
          }
        }
        shape {
          dim {
            size: 16
          }
        }
        shape {
          dim {
            size: 16
          }
        }
      }
    }
  }
  attr {
    key: "data_format"
    value {
      s: "NHWC"
    }
  }
  attr {
    key: "epsilon"
    value {
      f: 0.0010000000474974513
    }
  }
  attr {
    key: "is_training"
    value {
      b: false
    }
  }
}
node {
  name: "model/conv1/BatchNorm/cond/FusedBatchNorm_1/Switch"
  op: "Switch"
  input: "model/conv1/Conv2D"
  input: "model/conv1/BatchNorm/cond/pred_id"
  attr {
    key: "T"
    value {
      type: DT_FLOAT
    }
  }
  attr {
    key: "_class"
    value {
      list {
        s: "loc:@model/conv1/Conv2D"
      }
    }
  }
  attr {
    key: "_output_shapes"
    value {
      list {
        shape {
          dim {
            size: 2
          }
          dim {
            size: 25
          }
          dim {
            size: 350
          }
          dim {
            size: 16
          }
        }
        shape {
          dim {
            size: 2
          }
          dim {
            size: 25
          }
          dim {
            size: 350
          }
          dim {
            size: 16
          }
        }
      }
    }
  }
}
node {
  name: "model/conv1/BatchNorm/cond/FusedBatchNorm_1/Switch_1"
  op: "Switch"
  input: "model/conv1/BatchNorm/Const"
  input: "model/conv1/BatchNorm/cond/pred_id"
  attr {
    key: "T"
    value {
      type: DT_FLOAT
    }
  }
  attr {
    key: "_class"
    value {
      list {
        s: "loc:@model/conv1/BatchNorm/Const"
      }
    }
  }
  attr {
    key: "_output_shapes"
    value {
      list {
        shape {
          dim {
            size: 16
          }
        }
        shape {
          dim {
            size: 16
          }
        }
      }
    }
  }
}
node {
  name: "model/conv1/BatchNorm/cond/FusedBatchNorm_1/Switch_2"
  op: "Switch"
  input: "conv1/BatchNorm/beta/read"
  input: "model/conv1/BatchNorm/cond/pred_id"
  attr {
    key: "T"
    value {
      type: DT_FLOAT
    }
  }
  attr {
    key: "_class"
    value {
      list {
        s: "loc:@conv1/BatchNorm/beta"
      }
    }
  }
  attr {
    key: "_output_shapes"
    value {
      list {
        shape {
          dim {
            size: 16
          }
        }
        shape {
          dim {
            size: 16
          }
        }
      }
    }
  }
}
node {
  name: "model/conv1/BatchNorm/cond/FusedBatchNorm_1/Switch_3"
  op: "Switch"
  input: "conv1/BatchNorm/moving_mean/read"
  input: "model/conv1/BatchNorm/cond/pred_id"
  attr {
    key: "T"
    value {
      type: DT_FLOAT
    }
  }
  attr {
    key: "_class"
    value {
      list {
        s: "loc:@conv1/BatchNorm/moving_mean"
      }
    }
  }
  attr {
    key: "_output_shapes"
    value {
      list {
        shape {
          dim {
            size: 16
          }
        }
        shape {
          dim {
            size: 16
          }
        }
      }
    }
  }
}
node {
  name: "model/conv1/BatchNorm/cond/FusedBatchNorm_1/Switch_4"
  op: "Switch"
  input: "conv1/BatchNorm/moving_variance/read"
  input: "model/conv1/BatchNorm/cond/pred_id"
  attr {
    key: "T"
    value {
      type: DT_FLOAT
    }
  }
  attr {
    key: "_class"
    value {
      list {
        s: "loc:@conv1/BatchNorm/moving_variance"
      }
    }
  }
  attr {
    key: "_output_shapes"
    value {
      list {
        shape {
          dim {
            size: 16
          }
        }
        shape {
          dim {
            size: 16
          }
        }
      }
    }
  }
}
node {
  name: "model/conv1/BatchNorm/cond/Merge"
  op: "Merge"
  input: "model/conv1/BatchNorm/cond/FusedBatchNorm_1"
  input: "model/conv1/BatchNorm/cond/FusedBatchNorm"
  attr {
    key: "N"
    value {
      i: 2
    }
  }
  attr {
    key: "T"
    value {
      type: DT_FLOAT
    }
  }
  attr {
    key: "_output_shapes"
    value {
      list {
        shape {
          dim {
            size: 2
          }
          dim {
            size: 25
          }
          dim {
            size: 350
          }
          dim {
            size: 16
          }
        }
        shape {
        }
      }
    }
  }
}
node {
  name: "model/conv1/BatchNorm/cond/Merge_1"
  op: "Merge"
  input: "model/conv1/BatchNorm/cond/FusedBatchNorm_1:1"
  input: "model/conv1/BatchNorm/cond/FusedBatchNorm:1"
  attr {
    key: "N"
    value {
      i: 2
    }
  }
  attr {
    key: "T"
    value {
      type: DT_FLOAT
    }
  }
  attr {
    key: "_output_shapes"
    value {
      list {
        shape {
          dim {
            size: 16
          }
        }
        shape {
        }
      }
    }
  }
}
node {
  name: "model/conv1/BatchNorm/cond/Merge_2"
  op: "Merge"
  input: "model/conv1/BatchNorm/cond/FusedBatchNorm_1:2"
  input: "model/conv1/BatchNorm/cond/FusedBatchNorm:2"
  attr {
    key: "N"
    value {
      i: 2
    }
  }
  attr {
    key: "T"
    value {
      type: DT_FLOAT
    }
  }
  attr {
    key: "_output_shapes"
    value {
      list {
        shape {
          dim {
            size: 16
          }
        }
        shape {
        }
      }
    }
  }
}
node {
  name: "model/conv1/BatchNorm/cond_1/Switch"
  op: "Switch"
  input: "PlaceholderWithDefault"
  input: "PlaceholderWithDefault"
  attr {
    key: "T"
    value {
      type: DT_BOOL
    }
  }
  attr {
    key: "_output_shapes"
    value {
      list {
        shape {
        }
        shape {
        }
      }
    }
  }
}
node {
  name: "model/conv1/BatchNorm/cond_1/switch_t"
  op: "Identity"
  input: "model/conv1/BatchNorm/cond_1/Switch:1"
  attr {
    key: "T"
    value {
      type: DT_BOOL
    }
  }
  attr {
    key: "_output_shapes"
    value {
      list {
        shape {
        }
      }
    }
  }
}
node {
  name: "model/conv1/BatchNorm/cond_1/switch_f"
  op: "Identity"
  input: "model/conv1/BatchNorm/cond_1/Switch"
  attr {
    key: "T"
    value {
      type: DT_BOOL
    }
  }
  attr {
    key: "_output_shapes"
    value {
      list {
        shape {
        }
      }
    }
  }
}
node {
  name: "model/conv1/BatchNorm/cond_1/pred_id"
  op: "Identity"
  input: "PlaceholderWithDefault"
  attr {
    key: "T"
    value {
      type: DT_BOOL
    }
  }
  attr {
    key: "_output_shapes"
    value {
      list {
        shape {
        }
      }
    }
  }
}
node {
  name: "model/conv1/BatchNorm/cond_1/AssignMovingAvg/decay"
  op: "Const"
  input: "^model/conv1/BatchNorm/cond_1/switch_t"
  attr {
    key: "_class"
    value {
      list {
        s: "loc:@conv1/BatchNorm/moving_mean"
      }
    }
  }
  attr {
    key: "_output_shapes"
    value {
      list {
        shape {
        }
      }
    }
  }
  attr {
    key: "dtype"
    value {
      type: DT_FLOAT
    }
  }
  attr {
    key: "value"
    value {
      tensor {
        dtype: DT_FLOAT
        tensor_shape {
        }
        float_val: 0.10000000149011612
      }
    }
  }
}
node {
  name: "model/conv1/BatchNorm/cond_1/AssignMovingAvg/sub"
  op: "Sub"
  input: "model/conv1/BatchNorm/cond_1/AssignMovingAvg/sub/Switch:1"
  input: "model/conv1/BatchNorm/cond_1/AssignMovingAvg/sub/Switch_1:1"
  attr {
    key: "T"
    value {
      type: DT_FLOAT
    }
  }
  attr {
    key: "_class"
    value {
      list {
        s: "loc:@conv1/BatchNorm/moving_mean"
      }
    }
  }
  attr {
    key: "_output_shapes"
    value {
      list {
        shape {
          dim {
            size: 16
          }
        }
      }
    }
  }
}
node {
  name: "model/conv1/BatchNorm/cond_1/AssignMovingAvg/sub/Switch"
  op: "Switch"
  input: "conv1/BatchNorm/moving_mean/read"
  input: "model/conv1/BatchNorm/cond_1/pred_id"
  attr {
    key: "T"
    value {
      type: DT_FLOAT
    }
  }
  attr {
    key: "_class"
    value {
      list {
        s: "loc:@conv1/BatchNorm/moving_mean"
      }
    }
  }
  attr {
    key: "_output_shapes"
    value {
      list {
        shape {
          dim {
            size: 16
          }
        }
        shape {
          dim {
            size: 16
          }
        }
      }
    }
  }
}
node {
  name: "model/conv1/BatchNorm/cond_1/AssignMovingAvg/sub/Switch_1"
  op: "Switch"
  input: "model/conv1/BatchNorm/cond/Merge_1"
  input: "model/conv1/BatchNorm/cond_1/pred_id"
  attr {
    key: "T"
    value {
      type: DT_FLOAT
    }
  }
  attr {
    key: "_class"
    value {
      list {
        s: "loc:@model/conv1/BatchNorm/cond/Merge_1"
      }
    }
  }
  attr {
    key: "_output_shapes"
    value {
      list {
        shape {
          dim {
            size: 16
          }
        }
        shape {
          dim {
            size: 16
          }
        }
      }
    }
  }
}
node {
  name: "model/conv1/BatchNorm/cond_1/AssignMovingAvg/mul"
  op: "Mul"
  input: "model/conv1/BatchNorm/cond_1/AssignMovingAvg/sub"
  input: "model/conv1/BatchNorm/cond_1/AssignMovingAvg/decay"
  attr {
    key: "T"
    value {
      type: DT_FLOAT
    }
  }
  attr {
    key: "_class"
    value {
      list {
        s: "loc:@conv1/BatchNorm/moving_mean"
      }
    }
  }
  attr {
    key: "_output_shapes"
    value {
      list {
        shape {
          dim {
            size: 16
          }
        }
      }
    }
  }
}
node {
  name: "model/conv1/BatchNorm/cond_1/AssignMovingAvg"
  op: "AssignSub"
  input: "model/conv1/BatchNorm/cond_1/AssignMovingAvg/Switch:1"
  input: "model/conv1/BatchNorm/cond_1/AssignMovingAvg/mul"
  attr {
    key: "T"
    value {
      type: DT_FLOAT
    }
  }
  attr {
    key: "_class"
    value {
      list {
        s: "loc:@conv1/BatchNorm/moving_mean"
      }
    }
  }
  attr {
    key: "_output_shapes"
    value {
      list {
        shape {
          dim {
            size: 16
          }
        }
      }
    }
  }
  attr {
    key: "use_locking"
    value {
      b: false
    }
  }
}
node {
  name: "model/conv1/BatchNorm/cond_1/AssignMovingAvg/Switch"
  op: "RefSwitch"
  input: "conv1/BatchNorm/moving_mean"
  input: "model/conv1/BatchNorm/cond_1/pred_id"
  attr {
    key: "T"
    value {
      type: DT_FLOAT
    }
  }
  attr {
    key: "_class"
    value {
      list {
        s: "loc:@conv1/BatchNorm/moving_mean"
      }
    }
  }
  attr {
    key: "_output_shapes"
    value {
      list {
        shape {
          dim {
            size: 16
          }
        }
        shape {
          dim {
            size: 16
          }
        }
      }
    }
  }
}
node {
  name: "model/conv1/BatchNorm/cond_1/AssignMovingAvg_1/decay"
  op: "Const"
  input: "^model/conv1/BatchNorm/cond_1/switch_t"
  attr {
    key: "_class"
    value {
      list {
        s: "loc:@conv1/BatchNorm/moving_variance"
      }
    }
  }
  attr {
    key: "_output_shapes"
    value {
      list {
        shape {
        }
      }
    }
  }
  attr {
    key: "dtype"
    value {
      type: DT_FLOAT
    }
  }
  attr {
    key: "value"
    value {
      tensor {
        dtype: DT_FLOAT
        tensor_shape {
        }
        float_val: 0.10000000149011612
      }
    }
  }
}
node {
  name: "model/conv1/BatchNorm/cond_1/AssignMovingAvg_1/sub"
  op: "Sub"
  input: "model/conv1/BatchNorm/cond_1/AssignMovingAvg_1/sub/Switch:1"
  input: "model/conv1/BatchNorm/cond_1/AssignMovingAvg_1/sub/Switch_1:1"
  attr {
    key: "T"
    value {
      type: DT_FLOAT
    }
  }
  attr {
    key: "_class"
    value {
      list {
        s: "loc:@conv1/BatchNorm/moving_variance"
      }
    }
  }
  attr {
    key: "_output_shapes"
    value {
      list {
        shape {
          dim {
            size: 16
          }
        }
      }
    }
  }
}
node {
  name: "model/conv1/BatchNorm/cond_1/AssignMovingAvg_1/sub/Switch"
  op: "Switch"
  input: "conv1/BatchNorm/moving_variance/read"
  input: "model/conv1/BatchNorm/cond_1/pred_id"
  attr {
    key: "T"
    value {
      type: DT_FLOAT
    }
  }
  attr {
    key: "_class"
    value {
      list {
        s: "loc:@conv1/BatchNorm/moving_variance"
      }
    }
  }
  attr {
    key: "_output_shapes"
    value {
      list {
        shape {
          dim {
            size: 16
          }
        }
        shape {
          dim {
            size: 16
          }
        }
      }
    }
  }
}
node {
  name: "model/conv1/BatchNorm/cond_1/AssignMovingAvg_1/sub/Switch_1"
  op: "Switch"
  input: "model/conv1/BatchNorm/cond/Merge_2"
  input: "model/conv1/BatchNorm/cond_1/pred_id"
  attr {
    key: "T"
    value {
      type: DT_FLOAT
    }
  }
  attr {
    key: "_class"
    value {
      list {
        s: "loc:@model/conv1/BatchNorm/cond/Merge_2"
      }
    }
  }
  attr {
    key: "_output_shapes"
    value {
      list {
        shape {
          dim {
            size: 16
          }
        }
        shape {
          dim {
            size: 16
          }
        }
      }
    }
  }
}
node {
  name: "model/conv1/BatchNorm/cond_1/AssignMovingAvg_1/mul"
  op: "Mul"
  input: "model/conv1/BatchNorm/cond_1/AssignMovingAvg_1/sub"
  input: "model/conv1/BatchNorm/cond_1/AssignMovingAvg_1/decay"
  attr {
    key: "T"
    value {
      type: DT_FLOAT
    }
  }
  attr {
    key: "_class"
    value {
      list {
        s: "loc:@conv1/BatchNorm/moving_variance"
      }
    }
  }
  attr {
    key: "_output_shapes"
    value {
      list {
        shape {
          dim {
            size: 16
          }
        }
      }
    }
  }
}
node {
  name: "model/conv1/BatchNorm/cond_1/AssignMovingAvg_1"
  op: "AssignSub"
  input: "model/conv1/BatchNorm/cond_1/AssignMovingAvg_1/Switch:1"
  input: "model/conv1/BatchNorm/cond_1/AssignMovingAvg_1/mul"
  attr {
    key: "T"
    value {
      type: DT_FLOAT
    }
  }
  attr {
    key: "_class"
    value {
      list {
        s: "loc:@conv1/BatchNorm/moving_variance"
      }
    }
  }
  attr {
    key: "_output_shapes"
    value {
      list {
        shape {
          dim {
            size: 16
          }
        }
      }
    }
  }
  attr {
    key: "use_locking"
    value {
      b: false
    }
  }
}
node {
  name: "model/conv1/BatchNorm/cond_1/AssignMovingAvg_1/Switch"
  op: "RefSwitch"
  input: "conv1/BatchNorm/moving_variance"
  input: "model/conv1/BatchNorm/cond_1/pred_id"
  attr {
    key: "T"
    value {
      type: DT_FLOAT
    }
  }
  attr {
    key: "_class"
    value {
      list {
        s: "loc:@conv1/BatchNorm/moving_variance"
      }
    }
  }
  attr {
    key: "_output_shapes"
    value {
      list {
        shape {
          dim {
            size: 16
          }
        }
        shape {
          dim {
            size: 16
          }
        }
      }
    }
  }
}
node {
  name: "model/conv1/BatchNorm/cond_1/Identity"
  op: "Identity"
  input: "model/conv1/BatchNorm/cond_1/Identity/Switch:1"
  input: "^model/conv1/BatchNorm/cond_1/AssignMovingAvg"
  input: "^model/conv1/BatchNorm/cond_1/AssignMovingAvg_1"
  attr {
    key: "T"
    value {
      type: DT_FLOAT
    }
  }
  attr {
    key: "_output_shapes"
    value {
      list {
        shape {
          dim {
            size: 2
          }
          dim {
            size: 25
          }
          dim {
            size: 350
          }
          dim {
            size: 16
          }
        }
      }
    }
  }
}
node {
  name: "model/conv1/BatchNorm/cond_1/Identity/Switch"
  op: "Switch"
  input: "model/conv1/BatchNorm/cond/Merge"
  input: "model/conv1/BatchNorm/cond_1/pred_id"
  attr {
    key: "T"
    value {
      type: DT_FLOAT
    }
  }
  attr {
    key: "_class"
    value {
      list {
        s: "loc:@model/conv1/BatchNorm/cond/Merge"
      }
    }
  }
  attr {
    key: "_output_shapes"
    value {
      list {
        shape {
          dim {
            size: 2
          }
          dim {
            size: 25
          }
          dim {
            size: 350
          }
          dim {
            size: 16
          }
        }
        shape {
          dim {
            size: 2
          }
          dim {
            size: 25
          }
          dim {
            size: 350
          }
          dim {
            size: 16
          }
        }
      }
    }
  }
}
node {
  name: "model/conv1/BatchNorm/cond_1/Switch_1"
  op: "Switch"
  input: "model/conv1/BatchNorm/cond/Merge"
  input: "model/conv1/BatchNorm/cond_1/pred_id"
  attr {
    key: "T"
    value {
      type: DT_FLOAT
    }
  }
  attr {
    key: "_class"
    value {
      list {
        s: "loc:@model/conv1/BatchNorm/cond/Merge"
      }
    }
  }
  attr {
    key: "_output_shapes"
    value {
      list {
        shape {
          dim {
            size: 2
          }
          dim {
            size: 25
          }
          dim {
            size: 350
          }
          dim {
            size: 16
          }
        }
        shape {
          dim {
            size: 2
          }
          dim {
            size: 25
          }
          dim {
            size: 350
          }
          dim {
            size: 16
          }
        }
      }
    }
  }
}
node {
  name: "model/conv1/BatchNorm/cond_1/Merge"
  op: "Merge"
  input: "model/conv1/BatchNorm/cond_1/Switch_1"
  input: "model/conv1/BatchNorm/cond_1/Identity"
  attr {
    key: "N"
    value {
      i: 2
    }
  }
  attr {
    key: "T"
    value {
      type: DT_FLOAT
    }
  }
  attr {
    key: "_output_shapes"
    value {
      list {
        shape {
          dim {
            size: 2
          }
          dim {
            size: 25
          }
          dim {
            size: 350
          }
          dim {
            size: 16
          }
        }
        shape {
        }
      }
    }
  }
}
node {
  name: "model/conv1/Relu"
  op: "Relu"
  input: "model/conv1/BatchNorm/cond_1/Merge"
  attr {
    key: "T"
    value {
      type: DT_FLOAT
    }
  }
  attr {
    key: "_output_shapes"
    value {
      list {
        shape {
          dim {
            size: 2
          }
          dim {
            size: 25
          }
          dim {
            size: 350
          }
          dim {
            size: 16
          }
        }
      }
    }
  }
}
node {
  name: "model/pool1/MaxPool"
  op: "MaxPool"
  input: "model/conv1/Relu"
  attr {
    key: "T"
    value {
      type: DT_FLOAT
    }
  }
  attr {
    key: "_output_shapes"
    value {
      list {
        shape {
          dim {
            size: 2
          }
          dim {
            size: 12
          }
          dim {
            size: 175
          }
          dim {
            size: 16
          }
        }
      }
    }
  }
  attr {
    key: "data_format"
    value {
      s: "NHWC"
    }
  }
  attr {
    key: "ksize"
    value {
      list {
        i: 1
        i: 2
        i: 2
        i: 1
      }
    }
  }
  attr {
    key: "padding"
    value {
      s: "VALID"
    }
  }
  attr {
    key: "strides"
    value {
      list {
        i: 1
        i: 2
        i: 2
        i: 1
      }
    }
  }
}
node {
  name: "model/lstm2d_1/horizontal_pass/Horizontal_LSTM/transpose/perm"
  op: "Const"
  attr {
    key: "_output_shapes"
    value {
      list {
        shape {
          dim {
            size: 4
          }
        }
      }
    }
  }
  attr {
    key: "dtype"
    value {
      type: DT_INT32
    }
  }
  attr {
    key: "value"
    value {
      tensor {
        dtype: DT_INT32
        tensor_shape {
          dim {
            size: 4
          }
        }
        tensor_content: "\002\000\000\000\000\000\000\000\001\000\000\000\003\000\000\000"
      }
    }
  }
}
node {
  name: "model/lstm2d_1/horizontal_pass/Horizontal_LSTM/transpose"
  op: "Transpose"
  input: "model/pool1/MaxPool"
  input: "model/lstm2d_1/horizontal_pass/Horizontal_LSTM/transpose/perm"
  attr {
    key: "T"
    value {
      type: DT_FLOAT
    }
  }
  attr {
    key: "Tperm"
    value {
      type: DT_INT32
    }
  }
  attr {
    key: "_output_shapes"
    value {
      list {
        shape {
          dim {
            size: 175
          }
          dim {
            size: 2
          }
          dim {
            size: 12
          }
          dim {
            size: 16
          }
        }
      }
    }
  }
}
node {
  name: "model/lstm2d_1/horizontal_pass/Horizontal_LSTM/Reshape/shape"
  op: "Const"
  attr {
    key: "_output_shapes"
    value {
      list {
        shape {
          dim {
            size: 3
          }
        }
      }
    }
  }
  attr {
    key: "dtype"
    value {
      type: DT_INT32
    }
  }
  attr {
    key: "value"
    value {
      tensor {
        dtype: DT_INT32
        tensor_shape {
          dim {
            size: 3
          }
        }
        tensor_content: "\257\000\000\000\030\000\000\000\020\000\000\000"
      }
    }
  }
}
node {
  name: "model/lstm2d_1/horizontal_pass/Horizontal_LSTM/Reshape"
  op: "Reshape"
  input: "model/lstm2d_1/horizontal_pass/Horizontal_LSTM/transpose"
  input: "model/lstm2d_1/horizontal_pass/Horizontal_LSTM/Reshape/shape"
  attr {
    key: "T"
    value {
      type: DT_FLOAT
    }
  }
  attr {
    key: "Tshape"
    value {
      type: DT_INT32
    }
  }
  attr {
    key: "_output_shapes"
    value {
      list {
        shape {
          dim {
            size: 175
          }
          dim {
            size: 24
          }
          dim {
            size: 16
          }
        }
      }
    }
  }
}
node {
  name: "model/lstm2d_1/horizontal_pass/Horizontal_LSTM/lr/Sequence_LSTM/zeros/shape_as_tensor"
  op: "Const"
  attr {
    key: "_output_shapes"
    value {
      list {
        shape {
          dim {
            size: 2
          }
        }
      }
    }
  }
  attr {
    key: "dtype"
    value {
      type: DT_INT32
    }
  }
  attr {
    key: "value"
    value {
      tensor {
        dtype: DT_INT32
        tensor_shape {
          dim {
            size: 2
          }
        }
        tensor_content: "\030\000\000\000 \000\000\000"
      }
    }
  }
}
node {
  name: "model/lstm2d_1/horizontal_pass/Horizontal_LSTM/lr/Sequence_LSTM/zeros/Const"
  op: "Const"
  attr {
    key: "_output_shapes"
    value {
      list {
        shape {
        }
      }
    }
  }
  attr {
    key: "dtype"
    value {
      type: DT_FLOAT
    }
  }
  attr {
    key: "value"
    value {
      tensor {
        dtype: DT_FLOAT
        tensor_shape {
        }
        float_val: 0.0
      }
    }
  }
}
node {
  name: "model/lstm2d_1/horizontal_pass/Horizontal_LSTM/lr/Sequence_LSTM/zeros"
  op: "Fill"
  input: "model/lstm2d_1/horizontal_pass/Horizontal_LSTM/lr/Sequence_LSTM/zeros/shape_as_tensor"
  input: "model/lstm2d_1/horizontal_pass/Horizontal_LSTM/lr/Sequence_LSTM/zeros/Const"
  attr {
    key: "T"
    value {
      type: DT_FLOAT
    }
  }
  attr {
    key: "_output_shapes"
    value {
      list {
        shape {
          dim {
            size: 24
          }
          dim {
            size: 32
          }
        }
      }
    }
  }
  attr {
    key: "index_type"
    value {
      type: DT_INT32
    }
  }
}
node {
  name: "model/lstm2d_1/horizontal_pass/Horizontal_LSTM/lr/Sequence_LSTM/Fill/dims"
  op: "Const"
  attr {
    key: "_output_shapes"
    value {
      list {
        shape {
          dim {
            size: 1
          }
        }
      }
    }
  }
  attr {
    key: "dtype"
    value {
      type: DT_INT32
    }
  }
  attr {
    key: "value"
    value {
      tensor {
        dtype: DT_INT32
        tensor_shape {
          dim {
            size: 1
          }
        }
        int_val: 24
      }
    }
  }
}
node {
  name: "model/lstm2d_1/horizontal_pass/Horizontal_LSTM/lr/Sequence_LSTM/Fill/value"
  op: "Const"
  attr {
    key: "_output_shapes"
    value {
      list {
        shape {
        }
      }
    }
  }
  attr {
    key: "dtype"
    value {
      type: DT_INT32
    }
  }
  attr {
    key: "value"
    value {
      tensor {
        dtype: DT_INT32
        tensor_shape {
        }
        int_val: 175
      }
    }
  }
}
node {
  name: "model/lstm2d_1/horizontal_pass/Horizontal_LSTM/lr/Sequence_LSTM/Fill"
  op: "Fill"
  input: "model/lstm2d_1/horizontal_pass/Horizontal_LSTM/lr/Sequence_LSTM/Fill/dims"
  input: "model/lstm2d_1/horizontal_pass/Horizontal_LSTM/lr/Sequence_LSTM/Fill/value"
  attr {
    key: "T"
    value {
      type: DT_INT32
    }
  }
  attr {
    key: "_output_shapes"
    value {
      list {
        shape {
          dim {
            size: 24
          }
        }
      }
    }
  }
  attr {
    key: "index_type"
    value {
      type: DT_INT32
    }
  }
}
node {
  name: "model/lstm2d_1/horizontal_pass/Horizontal_LSTM/lr/Sequence_LSTM/ToInt64"
  op: "Cast"
  input: "model/lstm2d_1/horizontal_pass/Horizontal_LSTM/lr/Sequence_LSTM/Fill"
  attr {
    key: "DstT"
    value {
      type: DT_INT64
    }
  }
  attr {
    key: "SrcT"
    value {
      type: DT_INT32
    }
  }
  attr {
    key: "_output_shapes"
    value {
      list {
        shape {
          dim {
            size: 24
          }
        }
      }
    }
  }
}
node {
  name: "model/lstm2d_1/horizontal_pass/Horizontal_LSTM/lr/Sequence_LSTM/rnn/ToInt32"
  op: "Cast"
  input: "model/lstm2d_1/horizontal_pass/Horizontal_LSTM/lr/Sequence_LSTM/ToInt64"
  attr {
    key: "DstT"
    value {
      type: DT_INT32
    }
  }
  attr {
    key: "SrcT"
    value {
      type: DT_INT64
    }
  }
  attr {
    key: "_output_shapes"
    value {
      list {
        shape {
          dim {
            size: 24
          }
        }
      }
    }
  }
}
node {
  name: "model/lstm2d_1/horizontal_pass/Horizontal_LSTM/lr/Sequence_LSTM/rnn/sequence_length"
  op: "Identity"
  input: "model/lstm2d_1/horizontal_pass/Horizontal_LSTM/lr/Sequence_LSTM/rnn/ToInt32"
  attr {
    key: "T"
    value {
      type: DT_INT32
    }
  }
  attr {
    key: "_output_shapes"
    value {
      list {
        shape {
          dim {
            size: 24
          }
        }
      }
    }
  }
}
node {
  name: "model/lstm2d_1/horizontal_pass/Horizontal_LSTM/lr/Sequence_LSTM/rnn/Shape"
  op: "Const"
  attr {
    key: "_output_shapes"
    value {
      list {
        shape {
          dim {
            size: 1
          }
        }
      }
    }
  }
  attr {
    key: "dtype"
    value {
      type: DT_INT32
    }
  }
  attr {
    key: "value"
    value {
      tensor {
        dtype: DT_INT32
        tensor_shape {
          dim {
            size: 1
          }
        }
        int_val: 24
      }
    }
  }
}
node {
  name: "model/lstm2d_1/horizontal_pass/Horizontal_LSTM/lr/Sequence_LSTM/rnn/stack"
  op: "Const"
  attr {
    key: "_output_shapes"
    value {
      list {
        shape {
          dim {
            size: 1
          }
        }
      }
    }
  }
  attr {
    key: "dtype"
    value {
      type: DT_INT32
    }
  }
  attr {
    key: "value"
    value {
      tensor {
        dtype: DT_INT32
        tensor_shape {
          dim {
            size: 1
          }
        }
        int_val: 24
      }
    }
  }
}
node {
  name: "model/lstm2d_1/horizontal_pass/Horizontal_LSTM/lr/Sequence_LSTM/rnn/Equal"
  op: "Equal"
  input: "model/lstm2d_1/horizontal_pass/Horizontal_LSTM/lr/Sequence_LSTM/rnn/Shape"
  input: "model/lstm2d_1/horizontal_pass/Horizontal_LSTM/lr/Sequence_LSTM/rnn/stack"
  attr {
    key: "T"
    value {
      type: DT_INT32
    }
  }
  attr {
    key: "_output_shapes"
    value {
      list {
        shape {
          dim {
            size: 1
          }
        }
      }
    }
  }
}
node {
  name: "model/lstm2d_1/horizontal_pass/Horizontal_LSTM/lr/Sequence_LSTM/rnn/Const"
  op: "Const"
  attr {
    key: "_output_shapes"
    value {
      list {
        shape {
          dim {
            size: 1
          }
        }
      }
    }
  }
  attr {
    key: "dtype"
    value {
      type: DT_INT32
    }
  }
  attr {
    key: "value"
    value {
      tensor {
        dtype: DT_INT32
        tensor_shape {
          dim {
            size: 1
          }
        }
        int_val: 0
      }
    }
  }
}
node {
  name: "model/lstm2d_1/horizontal_pass/Horizontal_LSTM/lr/Sequence_LSTM/rnn/All"
  op: "All"
  input: "model/lstm2d_1/horizontal_pass/Horizontal_LSTM/lr/Sequence_LSTM/rnn/Equal"
  input: "model/lstm2d_1/horizontal_pass/Horizontal_LSTM/lr/Sequence_LSTM/rnn/Const"
  attr {
    key: "Tidx"
    value {
      type: DT_INT32
    }
  }
  attr {
    key: "_output_shapes"
    value {
      list {
        shape {
        }
      }
    }
  }
  attr {
    key: "keep_dims"
    value {
      b: false
    }
  }
}
node {
  name: "model/lstm2d_1/horizontal_pass/Horizontal_LSTM/lr/Sequence_LSTM/rnn/Assert/Const"
  op: "Const"
  attr {
    key: "_output_shapes"
    value {
      list {
        shape {
        }
      }
    }
  }
  attr {
    key: "dtype"
    value {
      type: DT_STRING
    }
  }
  attr {
    key: "value"
    value {
      tensor {
        dtype: DT_STRING
        tensor_shape {
        }
        string_val: "…"
      }
    }
  }
}
node {
  name: "model/lstm2d_1/horizontal_pass/Horizontal_LSTM/lr/Sequence_LSTM/rnn/Assert/Const_1"
  op: "Const"
  attr {
    key: "_output_shapes"
    value {
      list {
        shape {
        }
      }
    }
  }
  attr {
    key: "dtype"
    value {
      type: DT_STRING
    }
  }
  attr {
    key: "value"
    value {
      tensor {
        dtype: DT_STRING
        tensor_shape {
        }
        string_val: " but saw shape: "
      }
    }
  }
}
node {
  name: "model/lstm2d_1/horizontal_pass/Horizontal_LSTM/lr/Sequence_LSTM/rnn/Assert/Assert/data_0"
  op: "Const"
  attr {
    key: "_output_shapes"
    value {
      list {
        shape {
        }
      }
    }
  }
  attr {
    key: "dtype"
    value {
      type: DT_STRING
    }
  }
  attr {
    key: "value"
    value {
      tensor {
        dtype: DT_STRING
        tensor_shape {
        }
        string_val: "…"
      }
    }
  }
}
node {
  name: "model/lstm2d_1/horizontal_pass/Horizontal_LSTM/lr/Sequence_LSTM/rnn/Assert/Assert/data_2"
  op: "Const"
  attr {
    key: "_output_shapes"
    value {
      list {
        shape {
        }
      }
    }
  }
  attr {
    key: "dtype"
    value {
      type: DT_STRING
    }
  }
  attr {
    key: "value"
    value {
      tensor {
        dtype: DT_STRING
        tensor_shape {
        }
        string_val: " but saw shape: "
      }
    }
  }
}
node {
  name: "model/lstm2d_1/horizontal_pass/Horizontal_LSTM/lr/Sequence_LSTM/rnn/Assert/Assert"
  op: "Assert"
  input: "model/lstm2d_1/horizontal_pass/Horizontal_LSTM/lr/Sequence_LSTM/rnn/All"
  input: "model/lstm2d_1/horizontal_pass/Horizontal_LSTM/lr/Sequence_LSTM/rnn/Assert/Assert/data_0"
  input: "model/lstm2d_1/horizontal_pass/Horizontal_LSTM/lr/Sequence_LSTM/rnn/stack"
  input: "model/lstm2d_1/horizontal_pass/Horizontal_LSTM/lr/Sequence_LSTM/rnn/Assert/Assert/data_2"
  input: "model/lstm2d_1/horizontal_pass/Horizontal_LSTM/lr/Sequence_LSTM/rnn/Shape"
  attr {
    key: "T"
    value {
      list {
        type: DT_STRING
        type: DT_INT32
        type: DT_STRING
        type: DT_INT32
      }
    }
  }
  attr {
    key: "summarize"
    value {
      i: 3
    }
  }
}
node {
  name: "model/lstm2d_1/horizontal_pass/Horizontal_LSTM/lr/Sequence_LSTM/rnn/CheckSeqLen"
  op: "Identity"
  input: "model/lstm2d_1/horizontal_pass/Horizontal_LSTM/lr/Sequence_LSTM/rnn/sequence_length"
  input: "^model/lstm2d_1/horizontal_pass/Horizontal_LSTM/lr/Sequence_LSTM/rnn/Assert/Assert"
  attr {
    key: "T"
    value {
      type: DT_INT32
    }
  }
  attr {
    key: "_output_shapes"
    value {
      list {
        shape {
          dim {
            size: 24
          }
        }
      }
    }
  }
}
node {
  name: "model/lstm2d_1/horizontal_pass/Horizontal_LSTM/lr/Sequence_LSTM/rnn/Shape_1"
  op: "Const"
  attr {
    key: "_output_shapes"
    value {
      list {
        shape {
          dim {
            size: 3
          }
        }
      }
    }
  }
  attr {
    key: "dtype"
    value {
      type: DT_INT32
    }
  }
  attr {
    key: "value"
    value {
      tensor {
        dtype: DT_INT32
        tensor_shape {
          dim {
            size: 3
          }
        }
        tensor_content: "\257\000\000\000\030\000\000\000\020\000\000\000"
      }
    }
  }
}
node {
  name: "model/lstm2d_1/horizontal_pass/Horizontal_LSTM/lr/Sequence_LSTM/rnn/strided_slice/stack"
  op: "Const"
  attr {
    key: "_output_shapes"
    value {
      list {
        shape {
          dim {
            size: 1
          }
        }
      }
    }
  }
  attr {
    key: "dtype"
    value {
      type: DT_INT32
    }
  }
  attr {
    key: "value"
    value {
      tensor {
        dtype: DT_INT32
        tensor_shape {
          dim {
            size: 1
          }
        }
        int_val: 0
      }
    }
  }
}
node {
  name: "model/lstm2d_1/horizontal_pass/Horizontal_LSTM/lr/Sequence_LSTM/rnn/strided_slice/stack_1"
  op: "Const"
  attr {
    key: "_output_shapes"
    value {
      list {
        shape {
          dim {
            size: 1
          }
        }
      }
    }
  }
  attr {
    key: "dtype"
    value {
      type: DT_INT32
    }
  }
  attr {
    key: "value"
    value {
      tensor {
        dtype: DT_INT32
        tensor_shape {
          dim {
            size: 1
          }
        }
        int_val: 1
      }
    }
  }
}
node {
  name: "model/lstm2d_1/horizontal_pass/Horizontal_LSTM/lr/Sequence_LSTM/rnn/strided_slice/stack_2"
  op: "Const"
  attr {
    key: "_output_shapes"
    value {
      list {
        shape {
          dim {
            size: 1
          }
        }
      }
    }
  }
  attr {
    key: "dtype"
    value {
      type: DT_INT32
    }
  }
  attr {
    key: "value"
    value {
      tensor {
        dtype: DT_INT32
        tensor_shape {
          dim {
            size: 1
          }
        }
        int_val: 1
      }
    }
  }
}
node {
  name: "model/lstm2d_1/horizontal_pass/Horizontal_LSTM/lr/Sequence_LSTM/rnn/strided_slice"
  op: "StridedSlice"
  input: "model/lstm2d_1/horizontal_pass/Horizontal_LSTM/lr/Sequence_LSTM/rnn/Shape_1"
  input: "model/lstm2d_1/horizontal_pass/Horizontal_LSTM/lr/Sequence_LSTM/rnn/strided_slice/stack"
  input: "model/lstm2d_1/horizontal_pass/Horizontal_LSTM/lr/Sequence_LSTM/rnn/strided_slice/stack_1"
  input: "model/lstm2d_1/horizontal_pass/Horizontal_LSTM/lr/Sequence_LSTM/rnn/strided_slice/stack_2"
  attr {
    key: "Index"
    value {
      type: DT_INT32
    }
  }
  attr {
    key: "T"
    value {
      type: DT_INT32
    }
  }
  attr {
…
node {
  name: "report_uninitialized_variables/IsVariableInitialized_52"
  op: "IsVariableInitialized"
  input: "conv2/weights/Adam_1"
  attr {
    key: "_class"
    value {
      list {
        s: "loc:@conv2/weights"
      }
    }
  }
  attr {
    key: "_output_shapes"
    value {
      list {
        shape {
        }
      }
    }
  }
  attr {
    key: "dtype"
    value {
      type: DT_FLOAT
    }
  }
}
node {
  name: "report_uninitialized_variables/IsVariableInitialized_53"
  op: "IsVariableInitialized"
  input: "conv2/BatchNorm/beta/Adam"
  attr {
    key: "_class"
    value {
      list {
        s: "loc:@conv2/BatchNorm/beta"
      }
    }
  }
  attr {
    key: "_output_shapes"
    value {
      list {
        shape {
        }
      }
    }
  }
  attr {
    key: "dtype"
    value {
      type: DT_FLOAT
    }
  }
}
node {
  name: "report_uninitialized_variables/IsVariableInitialized_54"
  op: "IsVariableInitialized"
  input: "conv2/BatchNorm/beta/Adam_1"
  attr {
    key: "_class"
    value {
      list {
        s: "loc:@conv2/BatchNorm/beta"
      }
    }
  }
  attr {
    key: "_output_shapes"
    value {
      list {
        shape {
        }
      }
    }
  }
  attr {
    key: "dtype"
    value {
      type: DT_FLOAT
    }
  }
}
node {
  name: "report_uninitialized_variables/IsVariableInitialized_55"
  op: "IsVariableInitialized"
  input: "lstm2d_2/horizontal_pass/Horizontal_LSTM/lr/Sequence_LSTM/rnn/basic_lstm_cell/kernel/Adam"
  attr {
    key: "_class"
    value {
      list {
        s: "loc:@lstm2d_2/horizontal_pass/Horizontal_LSTM/lr/Sequence_LSTM/rnn/basic_lstm_cell/kernel"
      }
    }
  }
  attr {
    key: "_output_shapes"
    value {
      list {
        shape {
        }
      }
    }
  }
  attr {
    key: "dtype"
    value {
      type: DT_FLOAT
    }
  }
}
node {
  name: "report_uninitialized_variables/IsVariableInitialized_56"
  op: "IsVariableInitialized"
  input: "lstm2d_2/horizontal_pass/Horizontal_LSTM/lr/Sequence_LSTM/rnn/basic_lstm_cell/kernel/Adam_1"
  attr {
    key: "_class"
    value {
      list {
        s: "loc:@lstm2d_2/horizontal_pass/Horizontal_LSTM/lr/Sequence_LSTM/rnn/basic_lstm_cell/kernel"
      }
    }
  }
  attr {
    key: "_output_shapes"
    value {
      list {
        shape {
        }
      }
    }
  }
  attr {
    key: "dtype"
    value {
      type: DT_FLOAT
    }
  }
}
node {
  name: "report_uninitialized_variables/IsVariableInitialized_57"
  op: "IsVariableInitialized"
  input: "lstm2d_2/horizontal_pass/Horizontal_LSTM/lr/Sequence_LSTM/rnn/basic_lstm_cell/bias/Adam"
  attr {
    key: "_class"
    value {
      list {
        s: "loc:@lstm2d_2/horizontal_pass/Horizontal_LSTM/lr/Sequence_LSTM/rnn/basic_lstm_cell/bias"
      }
    }
  }
  attr {
    key: "_output_shapes"
    value {
      list {
        shape {
        }
      }
    }
  }
  attr {
    key: "dtype"
    value {
      type: DT_FLOAT
    }
  }
}
node {
  name: "report_uninitialized_variables/IsVariableInitialized_58"
  op: "IsVariableInitialized"
  input: "lstm2d_2/horizontal_pass/Horizontal_LSTM/lr/Sequence_LSTM/rnn/basic_lstm_cell/bias/Adam_1"
  attr {
    key: "_class"
    value {
      list {
        s: "loc:@lstm2d_2/horizontal_pass/Horizontal_LSTM/lr/Sequence_LSTM/rnn/basic_lstm_cell/bias"
      }
    }
  }
  attr {
    key: "_output_shapes"
    value {
      list {
        shape {
        }
      }
    }
  }
  attr {
    key: "dtype"
    value {
      type: DT_FLOAT
    }
  }
}
node {
  name: "report_uninitialized_variables/IsVariableInitialized_59"
  op: "IsVariableInitialized"
  input: "lstm2d_2/horizontal_pass/Horizontal_LSTM/rl/Sequence_LSTM/rnn/basic_lstm_cell/kernel/Adam"
  attr {
    key: "_class"
    value {
      list {
        s: "loc:@lstm2d_2/horizontal_pass/Horizontal_LSTM/rl/Sequence_LSTM/rnn/basic_lstm_cell/kernel"
      }
    }
  }
  attr {
    key: "_output_shapes"
    value {
      list {
        shape {
        }
      }
    }
  }
  attr {
    key: "dtype"
    value {
      type: DT_FLOAT
    }
  }
}
node {
  name: "report_uninitialized_variables/IsVariableInitialized_60"
  op: "IsVariableInitialized"
  input: "lstm2d_2/horizontal_pass/Horizontal_LSTM/rl/Sequence_LSTM/rnn/basic_lstm_cell/kernel/Adam_1"
  attr {
    key: "_class"
    value {
      list {
        s: "loc:@lstm2d_2/horizontal_pass/Horizontal_LSTM/rl/Sequence_LSTM/rnn/basic_lstm_cell/kernel"
      }
    }
  }
  attr {
    key: "_output_shapes"
    value {
      list {
        shape {
        }
      }
    }
  }
  attr {
    key: "dtype"
    value {
      type: DT_FLOAT
    }
  }
}
node {
  name: "report_uninitialized_variables/IsVariableInitialized_61"
  op: "IsVariableInitialized"
  input: "lstm2d_2/horizontal_pass/Horizontal_LSTM/rl/Sequence_LSTM/rnn/basic_lstm_cell/bias/Adam"
  attr {
    key: "_class"
    value {
      list {
        s: "loc:@lstm2d_2/horizontal_pass/Horizontal_LSTM/rl/Sequence_LSTM/rnn/basic_lstm_cell/bias"
      }
    }
  }
  attr {
    key: "_output_shapes"
    value {
      list {
        shape {
        }
      }
    }
  }
  attr {
    key: "dtype"
    value {
      type: DT_FLOAT
    }
  }
}
node {
  name: "report_uninitialized_variables/IsVariableInitialized_62"
  op: "IsVariableInitialized"
  input: "lstm2d_2/horizontal_pass/Horizontal_LSTM/rl/Sequence_LSTM/rnn/basic_lstm_cell/bias/Adam_1"
  attr {
    key: "_class"
    value {
      list {
        s: "loc:@lstm2d_2/horizontal_pass/Horizontal_LSTM/rl/Sequence_LSTM/rnn/basic_lstm_cell/bias"
      }
    }
  }
  attr {
    key: "_output_shapes"
    value {
      list {
        shape {
        }
      }
    }
  }
  attr {
    key: "dtype"
    value {
      type: DT_FLOAT
    }
  }
}
node {
  name: "report_uninitialized_variables/IsVariableInitialized_63"
  op: "IsVariableInitialized"
  input: "lstm2d_2/vertical_pass/Horizontal_LSTM/lr/Sequence_LSTM/rnn/basic_lstm_cell/kernel/Adam"
  attr {
    key: "_class"
    value {
      list {
        s: "loc:@lstm2d_2/vertical_pass/Horizontal_LSTM/lr/Sequence_LSTM/rnn/basic_lstm_cell/kernel"
      }
    }
  }
  attr {
    key: "_output_shapes"
    value {
      list {
        shape {
        }
      }
    }
  }
  attr {
    key: "dtype"
    value {
      type: DT_FLOAT
    }
  }
}
node {
  name: "report_uninitialized_variables/IsVariableInitialized_64"
  op: "IsVariableInitialized"
  input: "lstm2d_2/vertical_pass/Horizontal_LSTM/lr/Sequence_LSTM/rnn/basic_lstm_cell/kernel/Adam_1"
  attr {
    key: "_class"
    value {
      list {
        s: "loc:@lstm2d_2/vertical_pass/Horizontal_LSTM/lr/Sequence_LSTM/rnn/basic_lstm_cell/kernel"
      }
    }
  }
  attr {
    key: "_output_shapes"
    value {
      list {
        shape {
        }
      }
    }
  }
  attr {
    key: "dtype"
    value {
      type: DT_FLOAT
    }
  }
}
node {
  name: "report_uninitialized_variables/IsVariableInitialized_65"
  op: "IsVariableInitialized"
  input: "lstm2d_2/vertical_pass/Horizontal_LSTM/lr/Sequence_LSTM/rnn/basic_lstm_cell/bias/Adam"
  attr {
    key: "_class"
    value {
      list {
        s: "loc:@lstm2d_2/vertical_pass/Horizontal_LSTM/lr/Sequence_LSTM/rnn/basic_lstm_cell/bias"
      }
    }
  }
  attr {
    key: "_output_shapes"
    value {
      list {
        shape {
        }
      }
    }
  }
  attr {
    key: "dtype"
    value {
      type: DT_FLOAT
    }
  }
}
node {
  name: "report_uninitialized_variables/IsVariableInitialized_66"
  op: "IsVariableInitialized"
  input: "lstm2d_2/vertical_pass/Horizontal_LSTM/lr/Sequence_LSTM/rnn/basic_lstm_cell/bias/Adam_1"
  attr {
    key: "_class"
    value {
      list {
        s: "loc:@lstm2d_2/vertical_pass/Horizontal_LSTM/lr/Sequence_LSTM/rnn/basic_lstm_cell/bias"
      }
    }
  }
  attr {
    key: "_output_shapes"
    value {
      list {
        shape {
        }
      }
    }
  }
  attr {
    key: "dtype"
    value {
      type: DT_FLOAT
    }
  }
}
node {
  name: "report_uninitialized_variables/IsVariableInitialized_67"
  op: "IsVariableInitialized"
  input: "lstm2d_2/vertical_pass/Horizontal_LSTM/rl/Sequence_LSTM/rnn/basic_lstm_cell/kernel/Adam"
  attr {
    key: "_class"
    value {
      list {
        s: "loc:@lstm2d_2/vertical_pass/Horizontal_LSTM/rl/Sequence_LSTM/rnn/basic_lstm_cell/kernel"
      }
    }
  }
  attr {
    key: "_output_shapes"
    value {
      list {
        shape {
        }
      }
    }
  }
  attr {
    key: "dtype"
    value {
      type: DT_FLOAT
    }
  }
}
node {
  name: "report_uninitialized_variables/IsVariableInitialized_68"
  op: "IsVariableInitialized"
  input: "lstm2d_2/vertical_pass/Horizontal_LSTM/rl/Sequence_LSTM/rnn/basic_lstm_cell/kernel/Adam_1"
  attr {
    key: "_class"
    value {
      list {
        s: "loc:@lstm2d_2/vertical_pass/Horizontal_LSTM/rl/Sequence_LSTM/rnn/basic_lstm_cell/kernel"
      }
    }
  }
  attr {
    key: "_output_shapes"
    value {
      list {
        shape {
        }
      }
    }
  }
  attr {
    key: "dtype"
    value {
      type: DT_FLOAT
    }
  }
}
node {
  name: "report_uninitialized_variables/IsVariableInitialized_69"
  op: "IsVariableInitialized"
  input: "lstm2d_2/vertical_pass/Horizontal_LSTM/rl/Sequence_LSTM/rnn/basic_lstm_cell/bias/Adam"
  attr {
    key: "_class"
    value {
      list {
        s: "loc:@lstm2d_2/vertical_pass/Horizontal_LSTM/rl/Sequence_LSTM/rnn/basic_lstm_cell/bias"
      }
    }
  }
  attr {
    key: "_output_shapes"
    value {
      list {
        shape {
        }
      }
    }
  }
  attr {
    key: "dtype"
    value {
      type: DT_FLOAT
    }
  }
}
node {
  name: "report_uninitialized_variables/IsVariableInitialized_70"
  op: "IsVariableInitialized"
  input: "lstm2d_2/vertical_pass/Horizontal_LSTM/rl/Sequence_LSTM/rnn/basic_lstm_cell/bias/Adam_1"
  attr {
    key: "_class"
    value {
      list {
        s: "loc:@lstm2d_2/vertical_pass/Horizontal_LSTM/rl/Sequence_LSTM/rnn/basic_lstm_cell/bias"
      }
    }
  }
  attr {
    key: "_output_shapes"
    value {
      list {
        shape {
        }
      }
    }
  }
  attr {
    key: "dtype"
    value {
      type: DT_FLOAT
    }
  }
}
node {
  name: "report_uninitialized_variables/IsVariableInitialized_71"
  op: "IsVariableInitialized"
  input: "ctc_loss_1/w/Adam"
  attr {
    key: "_class"
    value {
      list {
        s: "loc:@ctc_loss_1/w"
      }
    }
  }
  attr {
    key: "_output_shapes"
    value {
      list {
        shape {
        }
      }
    }
  }
  attr {
    key: "dtype"
    value {
      type: DT_FLOAT
    }
  }
}
node {
  name: "report_uninitialized_variables/IsVariableInitialized_72"
  op: "IsVariableInitialized"
  input: "ctc_loss_1/w/Adam_1"
  attr {
    key: "_class"
    value {
      list {
        s: "loc:@ctc_loss_1/w"
      }
    }
  }
  attr {
    key: "_output_shapes"
    value {
      list {
        shape {
        }
      }
    }
  }
  attr {
    key: "dtype"
    value {
      type: DT_FLOAT
    }
  }
}
node {
  name: "report_uninitialized_variables/IsVariableInitialized_73"
  op: "IsVariableInitialized"
  input: "ctc_loss_1/b/Adam"
  attr {
    key: "_class"
    value {
      list {
        s: "loc:@ctc_loss_1/b"
      }
    }
  }
  attr {
    key: "_output_shapes"
    value {
      list {
        shape {
        }
      }
    }
  }
  attr {
    key: "dtype"
    value {
      type: DT_FLOAT
    }
  }
}
node {
  name: "report_uninitialized_variables/IsVariableInitialized_74"
  op: "IsVariableInitialized"
  input: "ctc_loss_1/b/Adam_1"
  attr {
    key: "_class"
    value {
      list {
        s: "loc:@ctc_loss_1/b"
      }
    }
  }
  attr {
    key: "_output_shapes"
    value {
      list {
        shape {
        }
      }
    }
  }
  attr {
    key: "dtype"
    value {
      type: DT_FLOAT
    }
  }
}
node {
  name: "report_uninitialized_variables/IsVariableInitialized_75"
  op: "IsVariableInitialized"
  input: "ctc_loss_1/w1/Adam"
  attr {
    key: "_class"
    value {
      list {
        s: "loc:@ctc_loss_1/w1"
      }
    }
  }
  attr {
    key: "_output_shapes"
    value {
      list {
        shape {
        }
      }
    }
  }
  attr {
    key: "dtype"
    value {
      type: DT_FLOAT
    }
  }
}
node {
  name: "report_uninitialized_variables/IsVariableInitialized_76"
  op: "IsVariableInitialized"
  input: "ctc_loss_1/w1/Adam_1"
  attr {
    key: "_class"
    value {
      list {
        s: "loc:@ctc_loss_1/w1"
      }
    }
  }
  attr {
    key: "_output_shapes"
    value {
      list {
        shape {
        }
      }
    }
  }
  attr {
    key: "dtype"
    value {
      type: DT_FLOAT
    }
  }
}
node {
  name: "report_uninitialized_variables/IsVariableInitialized_77"
  op: "IsVariableInitialized"
  input: "ctc_loss_1/b1/Adam"
  attr {
    key: "_class"
    value {
      list {
        s: "loc:@ctc_loss_1/b1"
      }
    }
  }
  attr {
    key: "_output_shapes"
    value {
      list {
        shape {
        }
      }
    }
  }
  attr {
    key: "dtype"
    value {
      type: DT_FLOAT
    }
  }
}
node {
  name: "report_uninitialized_variables/IsVariableInitialized_78"
  op: "IsVariableInitialized"
  input: "ctc_loss_1/b1/Adam_1"
  attr {
    key: "_class"
    value {
      list {
        s: "loc:@ctc_loss_1/b1"
      }
    }
  }
  attr {
    key: "_output_shapes"
    value {
      list {
        shape {
        }
      }
    }
  }
  attr {
    key: "dtype"
    value {
      type: DT_FLOAT
    }
  }
}
node {
  name: "report_uninitialized_variables/IsVariableInitialized_79"
  op: "IsVariableInitialized"
  input: "train_input/input_producer/limit_epochs/epochs"
  attr {
    key: "_class"
    value {
      list {
        s: "loc:@train_input/input_producer/limit_epochs/epochs"
      }
    }
  }
  attr {
    key: "_output_shapes"
    value {
      list {
        shape {
        }
      }
    }
  }
  attr {
    key: "dtype"
    value {
      type: DT_INT64
    }
  }
}
node {
  name: "report_uninitialized_variables/stack"
  op: "Pack"
  input: "report_uninitialized_variables/IsVariableInitialized"
  input: "report_uninitialized_variables/IsVariableInitialized_1"
  input: "report_uninitialized_variables/IsVariableInitialized_2"
  input: "report_uninitialized_variables/IsVariableInitialized_3"
  input: "report_uninitialized_variables/IsVariableInitialized_4"
  input: "report_uninitialized_variables/IsVariableInitialized_5"
  input: "report_uninitialized_variables/IsVariableInitialized_6"
  input: "report_uninitialized_variables/IsVariableInitialized_7"
  input: "report_uninitialized_variables/IsVariableInitialized_8"
  input: "report_uninitialized_variables/IsVariableInitialized_9"
  input: "report_uninitialized_variables/IsVariableInitialized_10"
  input: "report_uninitialized_variables/IsVariableInitialized_11"
  input: "report_uninitialized_variables/IsVariableInitialized_12"
  input: "report_uninitialized_variables/IsVariableInitialized_13"
  input: "report_uninitialized_variables/IsVariableInitialized_14"
  input: "report_uninitialized_variables/IsVariableInitialized_15"
  input: "report_uninitialized_variables/IsVariableInitialized_16"
  input: "report_uninitialized_variables/IsVariableInitialized_17"
  input: "report_uninitialized_variables/IsVariableInitialized_18"
  input: "report_uninitialized_variables/IsVariableInitialized_19"
  input: "report_uninitialized_variables/IsVariableInitialized_20"
  input: "report_uninitialized_variables/IsVariableInitialized_21"
  input: "report_uninitialized_variables/IsVariableInitialized_22"
  input: "report_uninitialized_variables/IsVariableInitialized_23"
  input: "report_uninitialized_variables/IsVariableInitialized_24"
  input: "report_uninitialized_variables/IsVariableInitialized_25"
  input: "report_uninitialized_variables/IsVariableInitialized_26"
  input: "report_uninitialized_variables/IsVariableInitialized_27"
  input: "report_uninitialized_variables/IsVariableInitialized_28"
  input: "report_uninitialized_variables/IsVariableInitialized_29"
  input: "report_uninitialized_variables/IsVariableInitialized_30"
  input: "report_uninitialized_variables/IsVariableInitialized_31"
  input: "report_uninitialized_variables/IsVariableInitialized_32"
  input: "report_uninitialized_variables/IsVariableInitialized_33"
  input: "report_uninitialized_variables/IsVariableInitialized_34"
  input: "report_uninitialized_variables/IsVariableInitialized_35"
  input: "report_uninitialized_variables/IsVariableInitialized_36"
  input: "report_uninitialized_variables/IsVariableInitialized_37"
  input: "report_uninitialized_variables/IsVariableInitialized_38"
  input: "report_uninitialized_variables/IsVariableInitialized_39"
  input: "report_uninitialized_variables/IsVariableInitialized_40"
  input: "report_uninitialized_variables/IsVariableInitialized_41"
  input: "report_uninitialized_variables/IsVariableInitialized_42"
  input: "report_uninitialized_variables/IsVariableInitialized_43"
  input: "report_uninitialized_variables/IsVariableInitialized_44"
  input: "report_uninitialized_variables/IsVariableInitialized_45"
  input: "report_uninitialized_variables/IsVariableInitialized_46"
  input: "report_uninitialized_variables/IsVariableInitialized_47"
  input: "report_uninitialized_variables/IsVariableInitialized_48"
  input: "report_uninitialized_variables/IsVariableInitialized_49"
  input: "report_uninitialized_variables/IsVariableInitialized_50"
  input: "report_uninitialized_variables/IsVariableInitialized_51"
  input: "report_uninitialized_variables/IsVariableInitialized_52"
  input: "report_uninitialized_variables/IsVariableInitialized_53"
  input: "report_uninitialized_variables/IsVariableInitialized_54"
  input: "report_uninitialized_variables/IsVariableInitialized_55"
  input: "report_uninitialized_variables/IsVariableInitialized_56"
  input: "report_uninitialized_variables/IsVariableInitialized_57"
  input: "report_uninitialized_variables/IsVariableInitialized_58"
  input: "report_uninitialized_variables/IsVariableInitialized_59"
  input: "report_uninitialized_variables/IsVariableInitialized_60"
  input: "report_uninitialized_variables/IsVariableInitialized_61"
  input: "report_uninitialized_variables/IsVariableInitialized_62"
  input: "report_uninitialized_variables/IsVariableInitialized_63"
  input: "report_uninitialized_variables/IsVariableInitialized_64"
  input: "report_uninitialized_variables/IsVariableInitialized_65"
  input: "report_uninitialized_variables/IsVariableInitialized_66"
  input: "report_uninitialized_variables/IsVariableInitialized_67"
  input: "report_uninitialized_variables/IsVariableInitialized_68"
  input: "report_uninitialized_variables/IsVariableInitialized_69"
  input: "report_uninitialized_variables/IsVariableInitialized_70"
  input: "report_uninitialized_variables/IsVariableInitialized_71"
  input: "report_uninitialized_variables/IsVariableInitialized_72"
  input: "report_uninitialized_variables/IsVariableInitialized_73"
  input: "report_uninitialized_variables/IsVariableInitialized_74"
  input: "report_uninitialized_variables/IsVariableInitialized_75"
  input: "report_uninitialized_variables/IsVariableInitialized_76"
  input: "report_uninitialized_variables/IsVariableInitialized_77"
  input: "report_uninitialized_variables/IsVariableInitialized_78"
  input: "report_uninitialized_variables/IsVariableInitialized_79"
  device: "/device:CPU:0"
  attr {
    key: "N"
    value {
      i: 80
    }
  }
  attr {
    key: "T"
    value {
      type: DT_BOOL
    }
  }
  attr {
    key: "_output_shapes"
    value {
      list {
        shape {
          dim {
            size: 80
          }
        }
      }
    }
  }
  attr {
    key: "axis"
    value {
      i: 0
    }
  }
}
node {
  name: "report_uninitialized_variables/LogicalNot"
  op: "LogicalNot"
  input: "report_uninitialized_variables/stack"
  device: "/device:CPU:0"
  attr {
    key: "_output_shapes"
    value {
      list {
        shape {
          dim {
            size: 80
          }
        }
      }
    }
  }
}
node {
  name: "report_uninitialized_variables/Const"
  op: "Const"
  device: "/device:CPU:0"
  attr {
    key: "_output_shapes"
    value {
      list {
        shape {
          dim {
            size: 80
          }
        }
      }
    }
  }
  attr {
    key: "dtype"
    value {
      type: DT_STRING
    }
  }
  attr {
    key: "value"
    value {
      tensor {
        dtype: DT_STRING
        tensor_shape {
          dim {
            size: 80
          }
        }
        string_val: "global_step"
        string_val: "conv1/weights"
        string_val: "conv1/BatchNorm/beta"
        string_val: "conv1/BatchNorm/moving_mean"
        string_val: "conv1/BatchNorm/moving_variance"
        string_val: "lstm2d_1/horizontal_pass/Horizontal_LSTM/lr/Sequence_LSTM/rnn/basic_lstm_cell/kernel"
        string_val: "lstm2d_1/horizontal_pass/Horizontal_LSTM/lr/Sequence_LSTM/rnn/basic_lstm_cell/bias"
        string_val: "lstm2d_1/horizontal_pass/Horizontal_LSTM/rl/Sequence_LSTM/rnn/basic_lstm_cell/kernel"
        string_val: "lstm2d_1/horizontal_pass/Horizontal_LSTM/rl/Sequence_LSTM/rnn/basic_lstm_cell/bias"
        string_val: "lstm2d_1/vertical_pass/Horizontal_LSTM/lr/Sequence_LSTM/rnn/basic_lstm_cell/kernel"
        string_val: "lstm2d_1/vertical_pass/Horizontal_LSTM/lr/Sequence_LSTM/rnn/basic_lstm_cell/bias"
        string_val: "lstm2d_1/vertical_pass/Horizontal_LSTM/rl/Sequence_LSTM/rnn/basic_lstm_cell/kernel"
        string_val: "lstm2d_1/vertical_pass/Horizontal_LSTM/rl/Sequence_LSTM/rnn/basic_lstm_cell/bias"
        string_val: "conv2/weights"
        string_val: "conv2/BatchNorm/beta"
        string_val: "conv2/BatchNorm/moving_mean"
        string_val: "conv2/BatchNorm/moving_variance"
        string_val: "lstm2d_2/horizontal_pass/Horizontal_LSTM/lr/Sequence_LSTM/rnn/basic_lstm_cell/kernel"
        string_val: "lstm2d_2/horizontal_pass/Horizontal_LSTM/lr/Sequence_LSTM/rnn/basic_lstm_cell/bias"
        string_val: "lstm2d_2/horizontal_pass/Horizontal_LSTM/rl/Sequence_LSTM/rnn/basic_lstm_cell/kernel"
        string_val: "lstm2d_2/horizontal_pass/Horizontal_LSTM/rl/Sequence_LSTM/rnn/basic_lstm_cell/bias"
        string_val: "lstm2d_2/vertical_pass/Horizontal_LSTM/lr/Sequence_LSTM/rnn/basic_lstm_cell/kernel"
        string_val: "lstm2d_2/vertical_pass/Horizontal_LSTM/lr/Sequence_LSTM/rnn/basic_lstm_cell/bias"
        string_val: "lstm2d_2/vertical_pass/Horizontal_LSTM/rl/Sequence_LSTM/rnn/basic_lstm_cell/kernel"
        string_val: "lstm2d_2/vertical_pass/Horizontal_LSTM/rl/Sequence_LSTM/rnn/basic_lstm_cell/bias"
        string_val: "ctc_loss_1/w"
        string_val: "ctc_loss_1/b"
        string_val: "ctc_loss_1/w1"
        string_val: "ctc_loss_1/b1"
        string_val: "model/beta1_power"
        string_val: "model/beta2_power"
        string_val: "conv1/weights/Adam"
        string_val: "conv1/weights/Adam_1"
        string_val: "conv1/BatchNorm/beta/Adam"
        string_val: "conv1/BatchNorm/beta/Adam_1"
        string_val: "lstm2d_1/horizontal_pass/Horizontal_LSTM/lr/Sequence_LSTM/rnn/basic_lstm_cell/kernel/Adam"
        string_val: "lstm2d_1/horizontal_pass/Horizontal_LSTM/lr/Sequence_LSTM/rnn/basic_lstm_cell/kernel/Adam_1"
        string_val: "lstm2d_1/horizontal_pass/Horizontal_LSTM/lr/Sequence_LSTM/rnn/basic_lstm_cell/bias/Adam"
        string_val: "lstm2d_1/horizontal_pass/Horizontal_LSTM/lr/Sequence_LSTM/rnn/basic_lstm_cell/bias/Adam_1"
        string_val: "lstm2d_1/horizontal_pass/Horizontal_LSTM/rl/Sequence_LSTM/rnn/basic_lstm_cell/kernel/Adam"
        string_val: "lstm2d_1/horizontal_pass/Horizontal_LSTM/rl/Sequence_LSTM/rnn/basic_lstm_cell/kernel/Adam_1"
        string_val: "lstm2d_1/horizontal_pass/Horizontal_LSTM/rl/Sequence_LSTM/rnn/basic_lstm_cell/bias/Adam"
        string_val: "lstm2d_1/horizontal_pass/Horizontal_LSTM/rl/Sequence_LSTM/rnn/basic_lstm_cell/bias/Adam_1"
        string_val: "lstm2d_1/vertical_pass/Horizontal_LSTM/lr/Sequence_LSTM/rnn/basic_lstm_cell/kernel/Adam"
        string_val: "lstm2d_1/vertical_pass/Horizontal_LSTM/lr/Sequence_LSTM/rnn/basic_lstm_cell/kernel/Adam_1"
        string_val: "lstm2d_1/vertical_pass/Horizontal_LSTM/lr/Sequence_LSTM/rnn/basic_lstm_cell/bias/Adam"
        string_val: "lstm2d_1/vertical_pass/Horizontal_LSTM/lr/Sequence_LSTM/rnn/basic_lstm_cell/bias/Adam_1"
        string_val: "lstm2d_1/vertical_pass/Horizontal_LSTM/rl/Sequence_LSTM/rnn/basic_lstm_cell/kernel/Adam"
        string_val: "lstm2d_1/vertical_pass/Horizontal_LSTM/rl/Sequence_LSTM/rnn/basic_lstm_cell/kernel/Adam_1"
        string_val: "lstm2d_1/vertical_pass/Horizontal_LSTM/rl/Sequence_LSTM/rnn/basic_lstm_cell/bias/Adam"
        string_val: "lstm2d_1/vertical_pass/Horizontal_LSTM/rl/Sequence_LSTM/rnn/basic_lstm_cell/bias/Adam_1"
        string_val: "conv2/weights/Adam"
        string_val: "conv2/weights/Adam_1"
        string_val: "conv2/BatchNorm/beta/Adam"
        string_val: "conv2/BatchNorm/beta/Adam_1"
        string_val: "lstm2d_2/horizontal_pass/Horizontal_LSTM/lr/Sequence_LSTM/rnn/basic_lstm_cell/kernel/Adam"
        string_val: "lstm2d_2/horizontal_pass/Horizontal_LSTM/lr/Sequence_LSTM/rnn/basic_lstm_cell/kernel/Adam_1"
        string_val: "lstm2d_2/horizontal_pass/Horizontal_LSTM/lr/Sequence_LSTM/rnn/basic_lstm_cell/bias/Adam"
        string_val: "lstm2d_2/horizontal_pass/Horizontal_LSTM/lr/Sequence_LSTM/rnn/basic_lstm_cell/bias/Adam_1"
        string_val: "lstm2d_2/horizontal_pass/Horizontal_LSTM/rl/Sequence_LSTM/rnn/basic_lstm_cell/kernel/Adam"
        string_val: "lstm2d_2/horizontal_pass/Horizontal_LSTM/rl/Sequence_LSTM/rnn/basic_lstm_cell/kernel/Adam_1"
        string_val: "lstm2d_2/horizontal_pass/Horizontal_LSTM/rl/Sequence_LSTM/rnn/basic_lstm_cell/bias/Adam"
        string_val: "lstm2d_2/horizontal_pass/Horizontal_LSTM/rl/Sequence_LSTM/rnn/basic_lstm_cell/bias/Adam_1"
        string_val: "lstm2d_2/vertical_pass/Horizontal_LSTM/lr/Sequence_LSTM/rnn/basic_lstm_cell/kernel/Adam"
        string_val: "lstm2d_2/vertical_pass/Horizontal_LSTM/lr/Sequence_LSTM/rnn/basic_lstm_cell/kernel/Adam_1"
        string_val: "lstm2d_2/vertical_pass/Horizontal_LSTM/lr/Sequence_LSTM/rnn/basic_lstm_cell/bias/Adam"
        string_val: "lstm2d_2/vertical_pass/Horizontal_LSTM/lr/Sequence_LSTM/rnn/basic_lstm_cell/bias/Adam_1"
        string_val: "lstm2d_2/vertical_pass/Horizontal_LSTM/rl/Sequence_LSTM/rnn/basic_lstm_cell/kernel/Adam"
        string_val: "lstm2d_2/vertical_pass/Horizontal_LSTM/rl/Sequence_LSTM/rnn/basic_lstm_cell/kernel/Adam_1"
        string_val: "lstm2d_2/vertical_pass/Horizontal_LSTM/rl/Sequence_LSTM/rnn/basic_lstm_cell/bias/Adam"
        string_val: "lstm2d_2/vertical_pass/Horizontal_LSTM/rl/Sequence_LSTM/rnn/basic_lstm_cell/bias/Adam_1"
        string_val: "ctc_loss_1/w/Adam"
        string_val: "ctc_loss_1/w/Adam_1"
        string_val: "ctc_loss_1/b/Adam"
        string_val: "ctc_loss_1/b/Adam_1"
        string_val: "ctc_loss_1/w1/Adam"
        string_val: "ctc_loss_1/w1/Adam_1"
        string_val: "ctc_loss_1/b1/Adam"
        string_val: "ctc_loss_1/b1/Adam_1"
        string_val: "train_input/input_producer/limit_epochs/epochs"
      }
    }
  }
}
node {
  name: "report_uninitialized_variables/boolean_mask/Shape"
  op: "Const"
  device: "/device:CPU:0"
  attr {
    key: "_output_shapes"
    value {
      list {
        shape {
          dim {
            size: 1
          }
        }
      }
    }
  }
  attr {
    key: "dtype"
    value {
      type: DT_INT32
    }
  }
  attr {
    key: "value"
    value {
      tensor {
        dtype: DT_INT32
        tensor_shape {
          dim {
            size: 1
          }
        }
        int_val: 80
      }
    }
  }
}
node {
  name: "report_uninitialized_variables/boolean_mask/strided_slice/stack"
  op: "Const"
  device: "/device:CPU:0"
  attr {
    key: "_output_shapes"
    value {
      list {
        shape {
          dim {
            size: 1
          }
        }
      }
    }
  }
  attr {
    key: "dtype"
    value {
      type: DT_INT32
    }
  }
  attr {
    key: "value"
    value {
      tensor {
        dtype: DT_INT32
        tensor_shape {
          dim {
            size: 1
          }
        }
        int_val: 0
      }
    }
  }
}
node {
  name: "report_uninitialized_variables/boolean_mask/strided_slice/stack_1"
  op: "Const"
  device: "/device:CPU:0"
  attr {
    key: "_output_shapes"
    value {
      list {
        shape {
          dim {
            size: 1
          }
        }
      }
    }
  }
  attr {
    key: "dtype"
    value {
      type: DT_INT32
    }
  }
  attr {
    key: "value"
    value {
      tensor {
        dtype: DT_INT32
        tensor_shape {
          dim {
            size: 1
          }
        }
        int_val: 1
      }
    }
  }
}
node {
  name: "report_uninitialized_variables/boolean_mask/strided_slice/stack_2"
  op: "Const"
  device: "/device:CPU:0"
  attr {
    key: "_output_shapes"
    value {
      list {
        shape {
          dim {
            size: 1
          }
        }
      }
    }
  }
  attr {
    key: "dtype"
    value {
      type: DT_INT32
    }
  }
  attr {
    key: "value"
    value {
      tensor {
        dtype: DT_INT32
        tensor_shape {
          dim {
            size: 1
          }
        }
        int_val: 1
      }
    }
  }
}
node {
  name: "report_uninitialized_variables/boolean_mask/strided_slice"
  op: "StridedSlice"
  input: "report_uninitialized_variables/boolean_mask/Shape"
  input: "report_uninitialized_variables/boolean_mask/strided_slice/stack"
  input: "report_uninitialized_variables/boolean_mask/strided_slice/stack_1"
  input: "report_uninitialized_variables/boolean_mask/strided_slice/stack_2"
  device: "/device:CPU:0"
  attr {
    key: "Index"
    value {
      type: DT_INT32
    }
  }
  attr {
    key: "T"
    value {
      type: DT_INT32
    }
  }
  attr {
    key: "_output_shapes"
    value {
      list {
        shape {
          dim {
            size: 1
          }
        }
      }
    }
  }
  attr {
    key: "begin_mask"
    value {
      i: 0
    }
  }
  attr {
    key: "ellipsis_mask"
    value {
      i: 0
    }
  }
  attr {
    key: "end_mask"
    value {
      i: 0
    }
  }
  attr {
    key: "new_axis_mask"
    value {
      i: 0
    }
  }
  attr {
    key: "shrink_axis_mask"
    value {
      i: 0
    }
  }
}
node {
  name: "report_uninitialized_variables/boolean_mask/Prod/reduction_indices"
  op: "Const"
  device: "/device:CPU:0"
  attr {
    key: "_output_shapes"
    value {
      list {
        shape {
          dim {
            size: 1
          }
        }
      }
    }
  }
  attr {
    key: "dtype"
    value {
      type: DT_INT32
    }
  }
  attr {
    key: "value"
    value {
      tensor {
        dtype: DT_INT32
        tensor_shape {
          dim {
            size: 1
          }
        }
        int_val: 0
      }
    }
  }
}
node {
  name: "report_uninitialized_variables/boolean_mask/Prod"
  op: "Prod"
  input: "report_uninitialized_variables/boolean_mask/strided_slice"
  input: "report_uninitialized_variables/boolean_mask/Prod/reduction_indices"
  device: "/device:CPU:0"
  attr {
    key: "T"
    value {
      type: DT_INT32
    }
  }
  attr {
    key: "Tidx"
    value {
      type: DT_INT32
    }
  }
  attr {
    key: "_output_shapes"
    value {
      list {
        shape {
        }
      }
    }
  }
  attr {
    key: "keep_dims"
    value {
      b: false
    }
  }
}
node {
  name: "report_uninitialized_variables/boolean_mask/Shape_1"
  op: "Const"
  device: "/device:CPU:0"
  attr {
    key: "_output_shapes"
    value {
      list {
        shape {
          dim {
            size: 1
          }
        }
      }
    }
  }
  attr {
    key: "dtype"
    value {
      type: DT_INT32
    }
  }
  attr {
    key: "value"
    value {
      tensor {
        dtype: DT_INT32
        tensor_shape {
          dim {
            size: 1
          }
        }
        int_val: 80
      }
    }
  }
}
node {
  name: "report_uninitialized_variables/boolean_mask/strided_slice_1/stack"
  op: "Const"
  device: "/device:CPU:0"
  attr {
    key: "_output_shapes"
    value {
      list {
        shape {
          dim {
            size: 1
          }
        }
      }
    }
  }
  attr {
    key: "dtype"
    value {
      type: DT_INT32
    }
  }
  attr {
    key: "value"
    value {
      tensor {
        dtype: DT_INT32
        tensor_shape {
          dim {
            size: 1
          }
        }
        int_val: 0
      }
    }
  }
}
node {
  name: "report_uninitialized_variables/boolean_mask/strided_slice_1/stack_1"
  op: "Const"
  device: "/device:CPU:0"
  attr {
    key: "_output_shapes"
    value {
      list {
        shape {
          dim {
            size: 1
          }
        }
      }
    }
  }
  attr {
    key: "dtype"
    value {
      type: DT_INT32
    }
  }
  attr {
    key: "value"
    value {
      tensor {
        dtype: DT_INT32
        tensor_shape {
          dim {
            size: 1
          }
        }
        int_val: 0
      }
    }
  }
}
node {
  name: "report_uninitialized_variables/boolean_mask/strided_slice_1/stack_2"
  op: "Const"
  device: "/device:CPU:0"
  attr {
    key: "_output_shapes"
    value {
      list {
        shape {
          dim {
            size: 1
          }
        }
      }
    }
  }
  attr {
    key: "dtype"
    value {
      type: DT_INT32
    }
  }
  attr {
    key: "value"
    value {
      tensor {
        dtype: DT_INT32
        tensor_shape {
          dim {
            size: 1
          }
        }
        int_val: 1
      }
    }
  }
}
node {
  name: "report_uninitialized_variables/boolean_mask/strided_slice_1"
  op: "StridedSlice"
  input: "report_uninitialized_variables/boolean_mask/Shape_1"
  input: "report_uninitialized_variables/boolean_mask/strided_slice_1/stack"
  input: "report_uninitialized_variables/boolean_mask/strided_slice_1/stack_1"
  input: "report_uninitialized_variables/boolean_mask/strided_slice_1/stack_2"
  device: "/device:CPU:0"
  attr {
    key: "Index"
    value {
      type: DT_INT32
    }
  }
  attr {
    key: "T"
    value {
      type: DT_INT32
    }
  }
  attr {
    key: "_output_shapes"
    value {
      list {
        shape {
          dim {
          }
        }
      }
    }
  }
  attr {
    key: "begin_mask"
    value {
      i: 1
    }
  }
  attr {
    key: "ellipsis_mask"
    value {
      i: 0
    }
  }
  attr {
    key: "end_mask"
    value {
      i: 0
    }
  }
  attr {
    key: "new_axis_mask"
    value {
      i: 0
    }
  }
  attr {
    key: "shrink_axis_mask"
    value {
      i: 0
    }
  }
}
node {
  name: "report_uninitialized_variables/boolean_mask/Shape_2"
  op: "Const"
  device: "/device:CPU:0"
  attr {
    key: "_output_shapes"
    value {
      list {
        shape {
          dim {
            size: 1
          }
        }
      }
    }
  }
  attr {
    key: "dtype"
    value {
      type: DT_INT32
    }
  }
  attr {
    key: "value"
    value {
      tensor {
        dtype: DT_INT32
        tensor_shape {
          dim {
            size: 1
          }
        }
        int_val: 80
      }
    }
  }
}
node {
  name: "report_uninitialized_variables/boolean_mask/strided_slice_2/stack"
  op: "Const"
  device: "/device:CPU:0"
  attr {
    key: "_output_shapes"
    value {
      list {
        shape {
          dim {
            size: 1
          }
        }
      }
    }
  }
  attr {
    key: "dtype"
    value {
      type: DT_INT32
    }
  }
  attr {
    key: "value"
    value {
      tensor {
        dtype: DT_INT32
        tensor_shape {
          dim {
            size: 1
          }
        }
        int_val: 1
      }
    }
  }
}
node {
  name: "report_uninitialized_variables/boolean_mask/strided_slice_2/stack_1"
  op: "Const"
  device: "/device:CPU:0"
  attr {
    key: "_output_shapes"
    value {
      list {
        shape {
          dim {
            size: 1
          }
        }
      }
    }
  }
  attr {
    key: "dtype"
    value {
      type: DT_INT32
    }
  }
  attr {
    key: "value"
    value {
      tensor {
        dtype: DT_INT32
        tensor_shape {
          dim {
            size: 1
          }
        }
        int_val: 0
      }
    }
  }
}
node {
  name: "report_uninitialized_variables/boolean_mask/strided_slice_2/stack_2"
  op: "Const"
  device: "/device:CPU:0"
  attr {
    key: "_output_shapes"
    value {
      list {
        shape {
          dim {
            size: 1
          }
        }
      }
    }
  }
  attr {
    key: "dtype"
    value {
      type: DT_INT32
    }
  }
  attr {
    key: "value"
    value {
      tensor {
        dtype: DT_INT32
        tensor_shape {
          dim {
            size: 1
          }
        }
        int_val: 1
      }
    }
  }
}
node {
  name: "report_uninitialized_variables/boolean_mask/strided_slice_2"
  op: "StridedSlice"
  input: "report_uninitialized_variables/boolean_mask/Shape_2"
  input: "report_uninitialized_variables/boolean_mask/strided_slice_2/stack"
  input: "report_uninitialized_variables/boolean_mask/strided_slice_2/stack_1"
  input: "report_uninitialized_variables/boolean_mask/strided_slice_2/stack_2"
  device: "/device:CPU:0"
  attr {
    key: "Index"
    value {
      type: DT_INT32
    }
  }
  attr {
    key: "T"
    value {
      type: DT_INT32
    }
  }
  attr {
    key: "_output_shapes"
    value {
      list {
        shape {
          dim {
          }
        }
      }
    }
  }
  attr {
    key: "begin_mask"
    value {
      i: 0
    }
  }
  attr {
    key: "ellipsis_mask"
    value {
      i: 0
    }
  }
  attr {
    key: "end_mask"
    value {
      i: 1
    }
  }
  attr {
    key: "new_axis_mask"
    value {
      i: 0
    }
  }
  attr {
    key: "shrink_axis_mask"
    value {
      i: 0
    }
  }
}
node {
  name: "report_uninitialized_variables/boolean_mask/concat/values_1"
  op: "Pack"
  input: "report_uninitialized_variables/boolean_mask/Prod"
  device: "/device:CPU:0"
  attr {
    key: "N"
    value {
      i: 1
    }
  }
  attr {
    key: "T"
    value {
      type: DT_INT32
    }
  }
  attr {
    key: "_output_shapes"
    value {
      list {
        shape {
          dim {
            size: 1
          }
        }
      }
    }
  }
  attr {
    key: "axis"
    value {
      i: 0
    }
  }
}
node {
  name: "report_uninitialized_variables/boolean_mask/concat/axis"
  op: "Const"
  device: "/device:CPU:0"
  attr {
    key: "_output_shapes"
    value {
      list {
        shape {
        }
      }
    }
  }
  attr {
    key: "dtype"
    value {
      type: DT_INT32
    }
  }
  attr {
    key: "value"
    value {
      tensor {
        dtype: DT_INT32
        tensor_shape {
        }
        int_val: 0
      }
    }
  }
}
node {
  name: "report_uninitialized_variables/boolean_mask/concat"
  op: "ConcatV2"
  input: "report_uninitialized_variables/boolean_mask/strided_slice_1"
  input: "report_uninitialized_variables/boolean_mask/concat/values_1"
  input: "report_uninitialized_variables/boolean_mask/strided_slice_2"
  input: "report_uninitialized_variables/boolean_mask/concat/axis"
  device: "/device:CPU:0"
  attr {
    key: "N"
    value {
      i: 3
    }
  }
  attr {
    key: "T"
    value {
      type: DT_INT32
    }
  }
  attr {
    key: "Tidx"
    value {
      type: DT_INT32
    }
  }
  attr {
    key: "_output_shapes"
    value {
      list {
        shape {
          dim {
            size: 1
          }
        }
      }
    }
  }
}
node {
  name: "report_uninitialized_variables/boolean_mask/Reshape"
  op: "Reshape"
  input: "report_uninitialized_variables/Const"
  input: "report_uninitialized_variables/boolean_mask/concat"
  device: "/device:CPU:0"
  attr {
    key: "T"
    value {
      type: DT_STRING
    }
  }
  attr {
    key: "Tshape"
    value {
      type: DT_INT32
    }
  }
  attr {
    key: "_output_shapes"
    value {
      list {
        shape {
          dim {
            size: 80
          }
        }
      }
    }
  }
}
node {
  name: "report_uninitialized_variables/boolean_mask/Reshape_1/shape"
  op: "Const"
  device: "/device:CPU:0"
  attr {
    key: "_output_shapes"
    value {
      list {
        shape {
          dim {
            size: 1
          }
        }
      }
    }
  }
  attr {
    key: "dtype"
    value {
      type: DT_INT32
    }
  }
  attr {
    key: "value"
    value {
      tensor {
        dtype: DT_INT32
        tensor_shape {
          dim {
            size: 1
          }
        }
        int_val: -1
      }
    }
  }
}
node {
  name: "report_uninitialized_variables/boolean_mask/Reshape_1"
  op: "Reshape"
  input: "report_uninitialized_variables/LogicalNot"
  input: "report_uninitialized_variables/boolean_mask/Reshape_1/shape"
  device: "/device:CPU:0"
  attr {
    key: "T"
    value {
      type: DT_BOOL
    }
  }
  attr {
    key: "Tshape"
    value {
      type: DT_INT32
    }
  }
  attr {
    key: "_output_shapes"
    value {
      list {
        shape {
          dim {
            size: 80
          }
        }
      }
    }
  }
}
node {
  name: "report_uninitialized_variables/boolean_mask/Where"
  op: "Where"
  input: "report_uninitialized_variables/boolean_mask/Reshape_1"
  device: "/device:CPU:0"
  attr {
    key: "T"
    value {
      type: DT_BOOL
    }
  }
  attr {
    key: "_output_shapes"
    value {
      list {
        shape {
          dim {
            size: -1
          }
          dim {
            size: 1
          }
        }
      }
    }
  }
}
node {
  name: "report_uninitialized_variables/boolean_mask/Squeeze"
  op: "Squeeze"
  input: "report_uninitialized_variables/boolean_mask/Where"
  device: "/device:CPU:0"
  attr {
    key: "T"
    value {
      type: DT_INT64
    }
  }
  attr {
    key: "_output_shapes"
    value {
      list {
        shape {
          dim {
            size: -1
          }
        }
      }
    }
  }
  attr {
    key: "squeeze_dims"
    value {
      list {
        i: 1
      }
    }
  }
}
node {
  name: "report_uninitialized_variables/boolean_mask/Gather"
  op: "Gather"
  input: "report_uninitialized_variables/boolean_mask/Reshape"
  input: "report_uninitialized_variables/boolean_mask/Squeeze"
  device: "/device:CPU:0"
  attr {
    key: "Tindices"
    value {
      type: DT_INT64
    }
  }
  attr {
    key: "Tparams"
    value {
      type: DT_STRING
    }
  }
  attr {
    key: "_output_shapes"
    value {
      list {
        shape {
          dim {
            size: -1
          }
        }
      }
    }
  }
  attr {
    key: "validate_indices"
    value {
      b: true
    }
  }
}
node {
  name: "init_1"
  op: "NoOp"
  input: "^train_input/input_producer/limit_epochs/epochs/Assign"
}
node {
  name: "init_all_tables"
  op: "NoOp"
}
node {
  name: "group_deps"
  op: "NoOp"
  input: "^init_1"
  input: "^init_all_tables"
}
node {
  name: "Merge/MergeSummary"
  op: "MergeSummary"
  input: "learning_rate"
  input: "train_input/input_producer/fraction_of_32_full"
  input: "train_input/shuffle_batch_join/fraction_over_2_of_8_full"
  input: "test_input/input_producer/fraction_of_32_full"
  input: "test_input/shuffle_batch_join/fraction_over_2_of_8_full"
  input: "model/input_raw"
  input: "model/Train/histogram-b-ctc"
  input: "model/Train/histogram-w-ctc"
  input: "model/conv1/weights"
  input: "model/conv1/BatchNorm/beta"
  input: "model/conv1/BatchNorm/moving_mean"
  input: "model/conv1/BatchNorm/moving_variance"
  input: "model/conv2/weights"
  input: "model/conv2/BatchNorm/beta"
  input: "model/conv2/BatchNorm/moving_mean"
  input: "model/conv2/BatchNorm/moving_variance"
  input: "model/label_loss"
  input: "model/reg_loss"
  attr {
    key: "N"
    value {
      i: 18
    }
  }
  attr {
    key: "_output_shapes"
    value {
      list {
        shape {
        }
      }
    }
  }
}
node {
  name: "init_2"
  op: "NoOp"
  input: "^global_step/Assign"
  input: "^conv1/weights/Assign"
  input: "^conv1/BatchNorm/beta/Assign"
  input: "^conv1/BatchNorm/moving_mean/Assign"
  input: "^conv1/BatchNorm/moving_variance/Assign"
  input: "^lstm2d_1/horizontal_pass/Horizontal_LSTM/lr/Sequence_LSTM/rnn/basic_lstm_cell/kernel/Assign"
  input: "^lstm2d_1/horizontal_pass/Horizontal_LSTM/lr/Sequence_LSTM/rnn/basic_lstm_cell/bias/Assign"
  input: "^lstm2d_1/horizontal_pass/Horizontal_LSTM/rl/Sequence_LSTM/rnn/basic_lstm_cell/kernel/Assign"
  input: "^lstm2d_1/horizontal_pass/Horizontal_LSTM/rl/Sequence_LSTM/rnn/basic_lstm_cell/bias/Assign"
  input: "^lstm2d_1/vertical_pass/Horizontal_LSTM/lr/Sequence_LSTM/rnn/basic_lstm_cell/kernel/Assign"
  input: "^lstm2d_1/vertical_pass/Horizontal_LSTM/lr/Sequence_LSTM/rnn/basic_lstm_cell/bias/Assign"
  input: "^lstm2d_1/vertical_pass/Horizontal_LSTM/rl/Sequence_LSTM/rnn/basic_lstm_cell/kernel/Assign"
  input: "^lstm2d_1/vertical_pass/Horizontal_LSTM/rl/Sequence_LSTM/rnn/basic_lstm_cell/bias/Assign"
  input: "^conv2/weights/Assign"
  input: "^conv2/BatchNorm/beta/Assign"
  input: "^conv2/BatchNorm/moving_mean/Assign"
  input: "^conv2/BatchNorm/moving_variance/Assign"
  input: "^lstm2d_2/horizontal_pass/Horizontal_LSTM/lr/Sequence_LSTM/rnn/basic_lstm_cell/kernel/Assign"
  input: "^lstm2d_2/horizontal_pass/Horizontal_LSTM/lr/Sequence_LSTM/rnn/basic_lstm_cell/bias/Assign"
  input: "^lstm2d_2/horizontal_pass/Horizontal_LSTM/rl/Sequence_LSTM/rnn/basic_lstm_cell/kernel/Assign"
  input: "^lstm2d_2/horizontal_pass/Horizontal_LSTM/rl/Sequence_LSTM/rnn/basic_lstm_cell/bias/Assign"
  input: "^lstm2d_2/vertical_pass/Horizontal_LSTM/lr/Sequence_LSTM/rnn/basic_lstm_cell/kernel/Assign"
  input: "^lstm2d_2/vertical_pass/Horizontal_LSTM/lr/Sequence_LSTM/rnn/basic_lstm_cell/bias/Assign"
  input: "^lstm2d_2/vertical_pass/Horizontal_LSTM/rl/Sequence_LSTM/rnn/basic_lstm_cell/kernel/Assign"
  input: "^lstm2d_2/vertical_pass/Horizontal_LSTM/rl/Sequence_LSTM/rnn/basic_lstm_cell/bias/Assign"
  input: "^ctc_loss_1/w/Assign"
  input: "^ctc_loss_1/b/Assign"
  input: "^ctc_loss_1/w1/Assign"
  input: "^ctc_loss_1/b1/Assign"
  input: "^model/beta1_power/Assign"
  input: "^model/beta2_power/Assign"
  input: "^conv1/weights/Adam/Assign"
  input: "^conv1/weights/Adam_1/Assign"
  input: "^conv1/BatchNorm/beta/Adam/Assign"
  input: "^conv1/BatchNorm/beta/Adam_1/Assign"
  input: "^lstm2d_1/horizontal_pass/Horizontal_LSTM/lr/Sequence_LSTM/rnn/basic_lstm_cell/kernel/Adam/Assign"
  input: "^lstm2d_1/horizontal_pass/Horizontal_LSTM/lr/Sequence_LSTM/rnn/basic_lstm_cell/kernel/Adam_1/Assign"
  input: "^lstm2d_1/horizontal_pass/Horizontal_LSTM/lr/Sequence_LSTM/rnn/basic_lstm_cell/bias/Adam/Assign"
  input: "^lstm2d_1/horizontal_pass/Horizontal_LSTM/lr/Sequence_LSTM/rnn/basic_lstm_cell/bias/Adam_1/Assign"
  input: "^lstm2d_1/horizontal_pass/Horizontal_LSTM/rl/Sequence_LSTM/rnn/basic_lstm_cell/kernel/Adam/Assign"
  input: "^lstm2d_1/horizontal_pass/Horizontal_LSTM/rl/Sequence_LSTM/rnn/basic_lstm_cell/kernel/Adam_1/Assign"
  input: "^lstm2d_1/horizontal_pass/Horizontal_LSTM/rl/Sequence_LSTM/rnn/basic_lstm_cell/bias/Adam/Assign"
  input: "^lstm2d_1/horizontal_pass/Horizontal_LSTM/rl/Sequence_LSTM/rnn/basic_lstm_cell/bias/Adam_1/Assign"
  input: "^lstm2d_1/vertical_pass/Horizontal_LSTM/lr/Sequence_LSTM/rnn/basic_lstm_cell/kernel/Adam/Assign"
  input: "^lstm2d_1/vertical_pass/Horizontal_LSTM/lr/Sequence_LSTM/rnn/basic_lstm_cell/kernel/Adam_1/Assign"
  input: "^lstm2d_1/vertical_pass/Horizontal_LSTM/lr/Sequence_LSTM/rnn/basic_lstm_cell/bias/Adam/Assign"
  input: "^lstm2d_1/vertical_pass/Horizontal_LSTM/lr/Sequence_LSTM/rnn/basic_lstm_cell/bias/Adam_1/Assign"
  input: "^lstm2d_1/vertical_pass/Horizontal_LSTM/rl/Sequence_LSTM/rnn/basic_lstm_cell/kernel/Adam/Assign"
  input: "^lstm2d_1/vertical_pass/Horizontal_LSTM/rl/Sequence_LSTM/rnn/basic_lstm_cell/kernel/Adam_1/Assign"
  input: "^lstm2d_1/vertical_pass/Horizontal_LSTM/rl/Sequence_LSTM/rnn/basic_lstm_cell/bias/Adam/Assign"
  input: "^lstm2d_1/vertical_pass/Horizontal_LSTM/rl/Sequence_LSTM/rnn/basic_lstm_cell/bias/Adam_1/Assign"
  input: "^conv2/weights/Adam/Assign"
  input: "^conv2/weights/Adam_1/Assign"
  input: "^conv2/BatchNorm/beta/Adam/Assign"
  input: "^conv2/BatchNorm/beta/Adam_1/Assign"
  input: "^lstm2d_2/horizontal_pass/Horizontal_LSTM/lr/Sequence_LSTM/rnn/basic_lstm_cell/kernel/Adam/Assign"
  input: "^lstm2d_2/horizontal_pass/Horizontal_LSTM/lr/Sequence_LSTM/rnn/basic_lstm_cell/kernel/Adam_1/Assign"
  input: "^lstm2d_2/horizontal_pass/Horizontal_LSTM/lr/Sequence_LSTM/rnn/basic_lstm_cell/bias/Adam/Assign"
  input: "^lstm2d_2/horizontal_pass/Horizontal_LSTM/lr/Sequence_LSTM/rnn/basic_lstm_cell/bias/Adam_1/Assign"
  input: "^lstm2d_2/horizontal_pass/Horizontal_LSTM/rl/Sequence_LSTM/rnn/basic_lstm_cell/kernel/Adam/Assign"
  input: "^lstm2d_2/horizontal_pass/Horizontal_LSTM/rl/Sequence_LSTM/rnn/basic_lstm_cell/kernel/Adam_1/Assign"
  input: "^lstm2d_2/horizontal_pass/Horizontal_LSTM/rl/Sequence_LSTM/rnn/basic_lstm_cell/bias/Adam/Assign"
  input: "^lstm2d_2/horizontal_pass/Horizontal_LSTM/rl/Sequence_LSTM/rnn/basic_lstm_cell/bias/Adam_1/Assign"
  input: "^lstm2d_2/vertical_pass/Horizontal_LSTM/lr/Sequence_LSTM/rnn/basic_lstm_cell/kernel/Adam/Assign"
  input: "^lstm2d_2/vertical_pass/Horizontal_LSTM/lr/Sequence_LSTM/rnn/basic_lstm_cell/kernel/Adam_1/Assign"
  input: "^lstm2d_2/vertical_pass/Horizontal_LSTM/lr/Sequence_LSTM/rnn/basic_lstm_cell/bias/Adam/Assign"
  input: "^lstm2d_2/vertical_pass/Horizontal_LSTM/lr/Sequence_LSTM/rnn/basic_lstm_cell/bias/Adam_1/Assign"
  input: "^lstm2d_2/vertical_pass/Horizontal_LSTM/rl/Sequence_LSTM/rnn/basic_lstm_cell/kernel/Adam/Assign"
  input: "^lstm2d_2/vertical_pass/Horizontal_LSTM/rl/Sequence_LSTM/rnn/basic_lstm_cell/kernel/Adam_1/Assign"
  input: "^lstm2d_2/vertical_pass/Horizontal_LSTM/rl/Sequence_LSTM/rnn/basic_lstm_cell/bias/Adam/Assign"
  input: "^lstm2d_2/vertical_pass/Horizontal_LSTM/rl/Sequence_LSTM/rnn/basic_lstm_cell/bias/Adam_1/Assign"
  input: "^ctc_loss_1/w/Adam/Assign"
  input: "^ctc_loss_1/w/Adam_1/Assign"
  input: "^ctc_loss_1/b/Adam/Assign"
  input: "^ctc_loss_1/b/Adam_1/Assign"
  input: "^ctc_loss_1/w1/Adam/Assign"
  input: "^ctc_loss_1/w1/Adam_1/Assign"
  input: "^ctc_loss_1/b1/Adam/Assign"
  input: "^ctc_loss_1/b1/Adam_1/Assign"
}
versions {
  producer: 26
}
